iGluSnFR3_100Hz_scripted.pt (torch, 92908 bytes, 25 tensors)

weight f4 [32, 1, 9]
00000000: b4ed 553e e07e 91be 3aac 4a3e 5ce8 aa3c
00000010: 655e 8ebe 7c1a 80be 6dca 043e 7bc1 3dbe
00000020: 02a0 59be 4c93 093e 344b 563e c526 b03c
00000030: de9e 4ebe 54f7 4b3d 25ee acbd bcef e7be
00000040: e359 92be 4ea7 eebd e188 ba3e 5e0b a23e
00000050: 56f1 3a3e d74e a13e 946f 8c3e 2665 a73d
00000060: 9b8a 983d b2a8 a53d 198e d63d 690f bf3d
00000070: 4d16 debc 8725 a23e a87a 18be 8eed f23b
00000080: 0f98 8ebe af55 a13e 6926 8bbe 794c 0a3e
00000090: 2466 a5bb 3a7b 773d 1945 a3bc b705 3abd
000000a0: fb76 ca3e 5e6c 96be e5f0 c43c 8309 963c
000000b0: 8231 08bd 05ea 5cbe 639c d7bd dd59 6cbe
000000c0: 5188 7c3d 1e4d bb3e 35ba 9bbe baed 533e
000000d0: 281b 123d 0b89 843e 69a6 583e e639 5abe
000000e0: 9cb7 90bb 2e9c 6fbc d948 a9be e4dc de3c
000000f0: b10f 85be 928c f8bb dbc3 78be 0ad4 67be
00000100: e0e8 1dbe ca2d 41be 5691 96be 1c25 e53c
00000110: 5857 073d b375 1cbe 35af bcbd 86ad 8ebe
00000120: a9f6 cfbd b97b 46be 716d 7fbd c438 e7bd
00000130: 6eda 9fbe 5aae 9bbe e4de 233e 21ef 2abe
00000140: f4e9 2bbe e91b e63c e0b7 7d3e b46f d83c
00000150: e5ff 32be 4d3f 76be 3652 41bd 287e 883e
00000160: c639 903e c33a 8ebd 87e2 5abe eb9a 913e
00000170: 8e0d d13d 2c57 d9be d7b7 8fbe 3105 a3be
00000180: 4016 2f3d ba67 693e dac6 183e c32b 49be
00000190: 4750 5dbe ae2a 29be bced 913c 70b5 963e
000001a0: 2321 44be 5f45 27be b15e bebd 2d67 08be
000001b0: a3bf c3bd 42a8 87bd ee40 113e de45 533e
000001c0: ecba 8a3e 8555 723d d0e5 90be f0a4 423e
000001d0: faa2 7ebe 7121 14be f822 7bbe ab72 ea3d
000001e0: ddd8 813e 9bee c9bc 6d13 853e c6d5 6d3d
000001f0: 4975 26be 72a3 823c 0653 e73c 4f65 c23d
00000200: 3afd ad3d 0582 86bc ce19 8f3c e019 9fbe
00000210: 19eb 9a3e 7668 2c3e 8688 f4bd defc 4f3e
00000220: 850c 533d 1a76 323d fd78 c33d b702 153e
00000230: 5b18 9ebc fba5 4bbe f989 5fbe 5cb3 8dbe
00000240: d96c 7cbe b4b8 833e 8107 65be 7482 bc3d
00000250: 8c6e c3be fd5d 7bbd bc76 a0bd 08ad a3be
00000260: e3a0 e03c 1103 d73d 9570 a33e ee7c 45bb
00000270: d1ab 7c3e 68f0 43be bb81 183e 8070 483e
00000280: 1c89 af3d 523e ab3e ae8c 683e a4b8 6e3d
00000290: 5abb 68be ede9 0abe d3a7 93be d564 8fbd
000002a0: 5799 d23d f722 acbe 2017 83be 0053 60be
000002b0: f0d0 a1bd 37db 243e 7988 b7bd e0b5 90be
000002c0: 4ad3 413e c4fd 75be 8dd7 a03d 2cbd c6bd
000002d0: f3af 063e ce9e 8c3e 03a6 8b3e 9059 f13c
000002e0: 717b a0be dfef 8dbe fcbe 60bd d79a a7be
000002f0: 5a53 de3d 62f9 56be 0350 ef3d 7f8f b63e
00000300: 3b4c c5bd 712e a2be 42e0 043d d303 abbd
00000310: ae1e 7fbb a2d6 04be 231d 3fbe 5b69 4dbe
00000320: 9b3d f7bc 0d0a b6be 669e 93be 0a17 783e
00000330: 6184 033d f17c 9c3d 809d 5abd 07a3 a7be
00000340: c76c 99bd 55fe f9bd ce8d a3be 7b1b 3dbd
00000350: b7eb 57be 796c 1e3e 1234 b6bd 2ba2 0a3e
00000360: 7a9e 173d 2b83 76bd f85d 533e 08c8 af3e
00000370: 85e1 bfbd 9a0a 6c3e cc3a efbd b8df 263c
00000380: 008b b0be feba 4b3e 1929 ffbd 1891 53bd
00000390: 8958 8fbe 1eb5 9abc 4146 3ebe 9377 8dbd
000003a0: ae7e 84be 2746 973e 0296 aabe 2402 873d
000003b0: 9c74 4f3e a7e3 9bbd 9c8e cdbd 5113 c2bd
000003c0: 15b3 0dbe da90 abbe 743a 583e 7cb1 6abe
000003d0: 9973 103c 3dec 95be 2a74 213e e204 c73d
000003e0: 1fd0 f7bb 7400 20be 748f bcbe 370a 6ebe
000003f0: 077c 09be b4d3 503c 9037 613e d6b0 abbc
0.20891458 -0.2841711 0.19792262 0.02086275 -0.27806392 -0.25020206 0.12967844 -0.18530838
-0.21252444 0.13435096 0.20927125 0.021502862 -0.2017779 0.049796417 -0.0844386 -0.4530009
-0.28584203 -0.116530046 0.36432555 0.31649297 0.18256125 0.31505463 0.27428877 0.081735894
0.07448312 0.08088817 0.10476322 0.09329111 -0.027110243 0.31669256 -0.1489054 0.0074135726
-0.27850387 0.31510684 -0.27177742 0.13505735 -0.0050475765 0.060420252 -0.01993041 -0.045415606
0.395439 -0.29379553 0.024040649 0.018315082 -0.03325034 -0.21573646 -0.10527875 -0.23081155
0.06165344 0.36582273 -0.30415502 0.20696154 0.03567043 0.25885805 0.2115723 -0.21311149
-0.004416419 -0.0146246385 -0.3306339 0.027204938 -0.25988534 -0.0075851167 -0.24293463 -0.2263948
-0.15420866 -0.18865123 -0.29407758 0.027971797 0.033042282 -0.15279274 -0.092131056 -0.27866763
-0.101544686 -0.19383134 -0.06236023 -0.11290124 -0.31221336 -0.30406457 0.16002995 -0.16692783
-0.16788465 0.02808948 0.24777174 0.026420452 -0.17480429 -0.24047585 -0.047197543 0.2665875
0.28169078 -0.06944802 -0.21375476 0.28438506 0.102076635 -0.4244932 -0.28069946 -0.31839898
0.04274583 0.22793475 0.14919606 -0.196456 -0.21612655 -0.16520187 0.017813556 0.294353
-0.19153266 -0.16335057 -0.09295405 -0.13320608 -0.09558036 -0.066238895 0.14184925 0.20632121
0.27095735 0.05916359 -0.28300333 0.19008231 -0.24866858 -0.14465882 -0.24525058 0.114476524
0.25360766 -0.024649909 0.25991383 0.0580652 -0.16255678 0.015947077 0.02823783 0.09491979
0.08495565 -0.01641942 0.01746836 -0.3107443 0.3025749 0.16836724 -0.11940102 0.20311305
0.05152561 0.04356966 0.09544561 0.14551817 -0.019298723 -0.19887535 -0.21829976 -0.27675903
-0.24650897 0.25726855 -0.22366144 0.092045695 -0.38170278 -0.06136893 -0.07835147 -0.3196795
0.027420467 0.10498632 0.3192183 -0.0030134278 0.24674918 -0.19134676 0.14893238 0.19574165
0.085710734 0.33445984 0.22709915 0.058281556 -0.22727719 -0.13565798 -0.28838977 -0.07001654
0.102831535 -0.33620426 -0.2560358 -0.21906662 -0.0790118 0.16099249 -0.08961577 -0.2826376
0.18928257 -0.24022585 0.07853613 -0.097040504 0.13153057 0.27464908 0.27275094 0.029461652
-0.31344178 -0.2772207 -0.054869637 -0.3273532 0.10855742 -0.2099357 0.11685183 0.35656354
-0.096336804 -0.31676057 0.03244043 -0.08350339 -0.0038928199 -0.12972501 -0.18663459 -0.20059721
-0.030180743 -0.35554543 -0.28831786 0.24227539 0.03210867 0.07641018 -0.05337286 -0.32741567
-0.07491451 -0.12206713 -0.31944126 -0.046168786 -0.21086012 0.15471067 -0.088966504 0.13538425
0.03701637 -0.060183685 0.20641315 0.343323 -0.09369186 0.23050919 -0.116811365 0.010185175
-0.3448105 0.1989555 -0.12459011 -0.051652044 -0.27997234 -0.018885192 -0.18581487 -0.069075726
-0.258779 0.2954571 -0.33317572 0.06592205 0.20259327 -0.076117806 -0.10036966 -0.094763406
-0.13837846 -0.3350895 0.21116048 -0.22919267 0.008816623 -0.29281798 0.1576697 0.09717728
-0.0075626518 -0.15625173 -0.36828196 -0.23246084 -0.13426219 0.012745786 0.21993852 -0.020958345

bias f4 [32]
00000000: 32a0 8fbe b64e ab3e 6032 18bd 5c50 c2bd
00000010: bfd2 2e3d d482 6ebe f4b7 423e 463f 18be
00000020: 41f1 32bd 2ab8 57be c21c 61be 0f44 aa3e
00000030: 1d4f 913e 14c7 623d 353b 203e cd8b aa3e
00000040: ed8c 2dbe ce51 82be 6501 5fbd a248 2a3c
00000050: 935e 8f3d 7c62 97be f5d1 4abd a3d8 503e
00000060: 0241 693e cd19 6bbe c8c2 7e3e 5576 07be
00000070: 1cbd 6abe 9695 8cbe 39de 48be b263 19be
-0.28051907 0.3345849 -0.037157416 -0.094879836 0.042681452 -0.23292094 0.19015485 -0.14867887
-0.04368711 -0.21066347 -0.21983626 0.3325505 0.2838067 0.055365637 0.15647586 0.33309785
-0.1694829 -0.25453037 -0.05444469 0.010393294 0.070004605 -0.29567325 -0.049516637 0.2039514
0.22778705 -0.22959061 0.2487899 -0.13228734 -0.22923702 -0.27457875 -0.19616021 -0.14979437

weight f4 [32, 33, 7]
00000000: ec8c 8a3d 7a34 c43c 34bc 30bc 45eb 233d
00000010: 66ab 88bd 4023 0dbd 83d1 bc3c 7dbf a8bb
00000020: b484 883d 8526 8abc c300 713d ad18 973c
00000030: 4bec 0f3d 001a 223d d336 5e3d 3d2c a43d
00000040: 2550 8f3d ae26 b0bc 660f 4ebb 5a87 43bc
00000050: 4ba1 203a 0e59 debc ec8e 383b aec4 02bd
00000060: 766a 7a3c 5472 0b3d abdf 8bbd 9a31 3f3b
00000070: 6a84 823c 82eb fd3c 327b ad3c a7a0 543c
00000080: 2e2a f33c 50f2 35bd 8931 123c 6981 37bd
00000090: f780 ff3c 0960 153d 4f82 f8bc b289 333d
000000a0: 58f4 f1bc e7cb dc3c 78cb 903d 79c6 013a
000000b0: c24b 36bc 0773 29bd cfbd 84bc fb11 223d
000000c0: 7d2a 5c3d 4643 10bd 6534 9d3d 6932 773d
000000d0: 0640 41bd e2fe 853d f0d7 8c3d ffa4 333d
000000e0: 8b6e 9bbd b5e3 843c 98ee aebd 6b4e 41bd
000000f0: 18d0 0fbe f022 6ebc bf80 cdbc 7da9 0abd
00000100: 99f5 d8bd 0fa0 c3bc 1104 98bd 2d34 ebbc
00000110: c41f 823b bec7 d7bb 8343 c03b ded0 353d
00000120: 32c5 ff3c 6f77 883c 60b7 353c 3edc fd3c
00000130: f1d2 41bd c782 a53c 145d 49bd d8b6 02bd
00000140: e858 eebc c235 903d 2dab 85bc 9285 9f3d
00000150: 4cb3 de3a 688e 14bb 7f6b 08bd 57f5 ccbd
00000160: 10ad debd 39e1 78bd 13bd aebc 484e 30bd
00000170: 77c9 443b 35cd 973d 4d3e 41ba 7ffc 2c3d
00000180: aada 19bd 2573 a2bc 7ec1 8c3d 2eb4 d73c
00000190: b821 18bd 7a94 443b 6522 4abc 9e23 cbbc
000001a0: bf5b 07bd bed0 9dbb cfb9 94bd fc79 5a3c
000001b0: 1c49 ecbc 58fc 08bc d2b9 963c 112b 9b3c
000001c0: 3c05 873d db6d 5a3d 5f59 ca3b 43dd c23c
000001d0: 4a05 e0bc 88a4 193d 02d2 243d 19f1 fdbd
000001e0: 6989 b2bd 3817 5dbb 6f7e 633d 6f6d 03bc
000001f0: d0d8 89bc 8083 ccbd 7f7b 2fbd 4312 65bc
00000200: 0c8e 913c 69b2 1c3d 11e7 c43c cea7 d03c
00000210: 6b5c 52bc 1c72 64bc 675d e53c 8718 1a3d
00000220: 2797 a4bb b9e2 bbba 13ab 023b 2c54 223d
00000230: 39bc a8bc da2b 8cbc a8bb 133d 2823 c83c
00000240: edf2 133d 5b06 c93c 7a9f 6a3d c5a3 043c
00000250: 045d b63c e67e 3b3d 2e95 69bb aeb7 a13d
00000260: aeaf 28bd 82da 8e3d c609 a73c 81df 0abd
00000270: 2e97 e03b f46d 483d eaae 383d 3f47 40bd
00000280: 45d5 2ebd 86bc c0bc 82b0 4e3d 330a 06bd
00000290: 87d7 02bd 56b6 9ebd 101d d43c 29bf 553d
000002a0: bfd7 d2bd 8850 93bd a99e d3bc a7b4 813c
000002b0: 1044 11bb c74e ad3c 7e70 27bd 6984 b03d
000002c0: 9532 1dbd f175 bf3c 3a61 27bd b0a8 6e3d
000002d0: c379 033d b4e9 053d b42f 0abe 9a27 823d
000002e0: 1ced 91bc 4caa 893c 3481 d43c 8353 633d
000002f0: a9bf 473d a692 1ebb 0ff8 8cbd 4c52 32bd
00000300: 87ba f43c 5483 3e3c b3da 323d 2dbe 2ebc
00000310: dd90 73bd 5fb1 943c f206 51bc 4e95 3a3d
00000320: 8158 eebc 910d bcbd 3abf 0fbd 2281 173d
00000330: 118f acbd 379d c3bd e3c3 93bd 1bcb 213d
00000340: 327d df3c 2460 0ebc 7459 7cbd 058f 9f3c
00000350: af02 89bd 46ec 0d3c 3876 f23c 5399 8b3c
00000360: 6f95 9c3d 94c0 0bbd 031d 77bd e54d ad3d
00000370: 821e abbd 3158 fdbc 5ce1 36bd 588c a33b
00000380: 8b6a 84bc 12e1 d23b 65c6 423d f452 4c3c
00000390: 7117 b23d 46fa 423d c417 1f3d 2ad3 38bd
000003a0: 82f9 b93c d96e 913d 590d 17bd 00f6 2d3c
000003b0: f712 33bd 92c7 9bbd 7550 533d ac8b 50bc
000003c0: 3fd3 bfbc e609 05bd 0fc3 1dbd a012 423c
000003d0: 7940 8d3d 33c6 6bbd e7b9 86bc 3a5f 09bd
000003e0: 7e42 273d bf0f 8ebd 27b1 6dbc 8ef1 ecbc
000003f0: 4f2a 3cbd 80ad 5e3c 3582 96bc fd7b b8bc
0.0676516 0.023950804 -0.010787059 0.040019292 -0.06673317 -0.034457445 0.023049122 -0.0051497803
0.06665936 -0.01686407 0.058838617 0.018444384 0.035137456 0.039575577 0.054251503 0.0801625
0.06997708 -0.021502819 -0.0031442284 -0.011934126 0.000612755 -0.027142074 0.002816136 -0.03192585
0.015284171 0.03404458 -0.06829771 0.0029173852 0.01593228 0.030996088 0.021176908 0.012977756
0.029683199 -0.04442054 0.008922943 -0.04480115 0.031189425 0.03646854 -0.030335573 0.04383249
-0.029535457 0.026952697 0.070700586 0.0004950534 -0.0111264605 -0.041369464 -0.016203789 0.03956793
0.053751457 -0.035220407 0.07676009 0.06035081 -0.047180198 0.06542756 0.06877124 0.043858524
-0.07589444 0.01622186 -0.08541602 -0.047193926 -0.14044225 -0.014534697 -0.025085805 -0.033853043
-0.10593719 -0.023880033 -0.074226506 -0.028711403 0.003971072 -0.0065850904 0.005867423 0.044388644
0.03122196 0.016658513 0.011091083 0.030988809 -0.04732031 0.020203961 -0.04916103 -0.031912655
-0.029095128 0.070415035 -0.016316975 0.077891484 0.001699069 -0.0022667889 -0.03330564 -0.10007732
-0.10872853 -0.060761664 -0.021330392 -0.043043405 0.003002731 0.07412187 -0.0007371649 0.042232987
-0.03756205 -0.019830296 0.06872843 0.026331034 -0.03714153 0.0029995725 -0.012337302 -0.024797257
-0.03304648 -0.004816144 -0.07262003 0.013334747 -0.028843455 -0.008360945 0.018399153 0.018941434
0.06592795 0.053327423 0.0061752046 0.023787146 -0.027346272 0.037510425 0.04023934 -0.12399501
-0.08717615 -0.0033735763 0.0555405 -0.0080216965 -0.016827017 -0.09986019 -0.042842384 -0.013981405
0.017767929 0.038256083 0.024035962 0.02547064 -0.012839417 -0.013943221 0.02799864 0.037621047
-0.0050229016 -0.0014334536 0.0019938394 0.039631054 -0.020597564 -0.017110754 0.036067635 0.024430826
0.036120344 0.024539163 0.057280995 0.008095686 0.02226115 0.045775317 -0.0035641897 0.07896362
-0.041183166 0.06975271 0.020390403 -0.033904556 0.0068539595 0.048932984 0.045088686 -0.046942946
-0.04268386 -0.023527395 0.0504613 -0.03272457 -0.031943824 -0.077496216 0.025892764 0.052184258
-0.102950566 -0.071930945 -0.025832491 0.015833212 -0.0022165813 0.021155728 -0.040878765 0.08619005
-0.038378317 0.023371669 -0.040864207 0.05826634 0.032098543 0.03269358 -0.1349476 0.0635521
-0.017813258 0.016804837 0.025940515 0.055499565 0.048766766 -0.0024196296 -0.06883251 -0.043535516
0.0298741 0.011627991 0.0436656 -0.010665459 -0.059464324 0.018150983 -0.012758004 0.045552544
-0.029094936 -0.09182275 -0.035094477 0.036988385 -0.08425725 -0.09551471 -0.07215097 0.039500337
0.027281377 -0.008689914 -0.061608747 0.019477377 -0.06689965 0.008662289 0.029597387 0.017040884
0.0764569 -0.034119204 -0.060330402 0.08462123 -0.08355428 -0.030925842 -0.044648513 0.0049910955
-0.016164085 0.006435522 0.047552485 0.012470949 0.08695877 0.04760196 0.038841024 -0.045123257
0.022701982 0.07101221 -0.036877964 0.010617733 -0.04371926 -0.076064244 0.0515904 -0.012728613
-0.02341616 -0.032480143 -0.0385161 0.011845261 0.06897063 -0.057562064 -0.016446067 -0.03353808
0.040834896 -0.06936597 -0.014507568 -0.028923776 -0.045938786 0.01359117 -0.018372634 -0.02252006

bias f4 [32]
00000000: cc6f 773c f264 473d 0c16 c8bc e96d 44bd
00000010: 85ae fa3c 7e28 5bbd 71c0 093c a317 db3c
00000020: 689d e93c ba45 5ebd 97c7 5e3d 286b 193d
00000030: 168d 07bd 49ae 7a3d 4696 993c 3f71 b0ba
00000040: 6ea0 1ebd 528b 3d3c 5501 79bd 87a8 5dbd
00000050: 33df 803d 48af 33bd 0c4d 06bd d85c c7bc
00000060: fed9 10bd af4e 0e3d 7418 edbc cfeb 803d
00000070: d0a0 783c 32b8 f8bc b607 a1bc 4c2e af3c
0.015102338 0.048680253 -0.024424575 -0.04795638 0.030600796 -0.053505413 0.008407698 0.02674467
0.02851744 -0.054265715 0.054389562 0.037455708 -0.033093534 0.061201368 0.018748414 -0.0013461484
-0.038727216 0.011568861 -0.060792286 -0.0541158 0.06292572 -0.043868333 -0.03278832 -0.024336264
-0.035364144 0.034743007 -0.028942324 0.06294977 0.015175059 -0.030361269 -0.019656997 0.02138438

weight f4 [32, 33, 5]
00000000: 3aa9 c13b ae82 60bd a733 13bd baf4 663d
00000010: 5d3e e9bc 1f03 01bd 55ea b6bd 46a0 763b
00000020: 3c7f de3c 637e d4bc 1b95 1a3d 05aa 543d
00000030: a019 72bc 5450 60bb 3170 0c3d 908b 69bd
00000040: e0c4 283d c8d2 a5bd e266 6a3c ea89 bdbc
00000050: c018 683d da48 eabc e488 c63d d576 0cbd
00000060: 9764 323d b04e 3abd aec4 b8bc 3d39 93bc
00000070: 7662 55bd ceb3 7cbd 3214 553d 4bbd 57bc
00000080: 9e04 e7bc 2e25 9f3c 9f1f 3fbd 0fb6 9b3c
00000090: c582 233d ff04 393d bd0e 27bd 5008 b6bd
000000a0: 429c 223c aac5 61bc d42c a4bd 2d05 b3bc
000000b0: 5709 afbb 0a0c 91bd cdec 1a3d 6cd5 9e3b
000000c0: 4086 9e3c 2ab2 2fbd 2c3c 6cbd 6d81 9cbd
000000d0: 90f5 59bd 2a2f 75bc 61b6 e2bb 2148 2f3d
000000e0: 8918 c43c bbbe 9d3c 588c fabc 7583 37bd
000000f0: 43a4 b23c 7f3e 45bd bd37 b2bb c1df 7d3d
00000100: 1256 963c 63d2 723d cce8 cb3c 37f5 8a3d
00000110: 5800 c23c d0fb 883d 9d03 55bd a883 31bd
00000120: 7fb0 42bb dbbe 30bd 1369 f4bb 0f05 f03b
00000130: f33e 863d 32ec 89bd cbe5 edbc 2222 cc3d
00000140: e3a5 7ebd eb1d 6abd 0dcb 87bd 1a8f 4ebc
00000150: b4cb 15bd 453d 23bc 8dd1 1e3c 187e 803c
00000160: fff8 b23c 9f6c ee3c 730b a33c 0ab4 27bc
00000170: 1c94 19bc 5e8f 0e3d 6981 79bc e9db 5abc
00000180: 5693 053d 9097 5f3d 602c 56bd dcba 433d
00000190: d6e8 a1bc a64c ae3a a7bc a63c 884e 52bd
000001a0: 26d7 ed3c e2d2 8f3d 0870 743c 08e3 ea3c
000001b0: 3fc4 8e3d 9c72 a8bd 7d6c 7e3c 4bd4 9fbd
000001c0: d48b 01bd 6bfb 703c fcff 5dbb d96d 5abc
000001d0: 04fa 32bd 3d0b ad3d 1225 e9bb a8ea 43bd
000001e0: 7ed3 783d cf6c 243d b5e0 7cbb 29ad 1abb
000001f0: 8370 8bbc a277 0a3c 2bdc f93c 3297 ccbd
00000200: 9e73 bdbd b1b3 2abd 97d5 133d 790f 663d
00000210: eac6 1c3d 73e5 65bc 11bc 00bd c064 073d
00000220: c085 35bd cdb8 30bd 48f5 d13a f005 553d
00000230: 66a9 3d3d 12bd 24bd 6cab 8cbd 61a5 87bd
00000240: 21a8 d5bd 2bfe 8d3d aa34 0fbc 6844 30bd
00000250: 7170 5cbd fd54 0f3d 62cd 7f3c 06dc 0ebb
00000260: 0d9b 50bd fcae 403d 4bb4 133d 2753 a1bd
00000270: ab83 25bd 3f6f 273d d784 d23d bde9 39bd
00000280: d55b 25bd d70f 5c3d cad6 53bc cd62 8fbd
00000290: b239 b53a 4ec1 1ebc 6a04 963c d244 043c
000002a0: 6f19 803d 2086 5dbc f72c 33bc 91d8 5e3d
000002b0: f527 763d 87d1 523b ac39 d8bc af67 833c
000002c0: f06a 183d 6540 3ebd fe77 283d 6f60 263d
000002d0: af44 bbbc 3943 033d 5844 99bc 5435 aabd
000002e0: acf1 82bc bebf 943d 2821 28bc a953 a33d
000002f0: 5b38 c23d 65d6 d43c 7f9e 69bd 1325 e9bc
00000300: d70a 7ebd 7e9f 43bd 9d3b 533c 1a2c dbbc
00000310: 8a3f 1c3d 6cc6 213d ad89 433d 7ef2 9dbc
00000320: bcf8 f33b ae48 383d 8d9f 833c 1686 b6bc
00000330: 1585 37bd b9b3 f4ba e86c 87bd bea7 4ebc
00000340: c660 8bbd b6a9 633d 49a1 343d 23b3 5dbc
00000350: 3c21 ffba 04bd 3ebd 67ab fcbc 84fc 9abd
00000360: 7600 4a3b 58c5 d9bb 985a 113d fc5a f2bc
00000370: 8bcb c0bd a235 58bd dee8 38bd ac11 163b
00000380: 6782 1abd 7133 6abd 2c4e c0bd babe bdbd
00000390: bbb9 44bd 580c 1d3b bd11 bf3b 2c30 7bbd
000003a0: 703c edbd 67ab 6e3b 0062 23bd 010c 0abd
000003b0: e3ae 343d af27 b63c 4335 c5bc 3b44 6abd
000003c0: 112b 4b3c 581c 60ba ec3b 283d 7cd8 733c
000003d0: ce0d 97b9 0de3 803b 9bc5 903b c97c 09bd
000003e0: 54dd a2b9 57c8 32bb 3059 763d 6555 843d
000003f0: 64ea e13d 3a33 6f3d 989b a93d db8d aebd
0.005910066 -0.054812126 -0.03593793 0.056385733 -0.02847212 -0.031497117 -0.08931414 0.0037632152
0.02716028 -0.025939172 0.037739854 0.051919956 -0.014776617 -0.0034227567 0.03428668 -0.057017863
0.04120338 -0.08096844 0.014306756 -0.023137052 0.05666423 -0.028599191 0.096940786 -0.034293015
0.04355296 -0.0454852 -0.022554722 -0.01797163 -0.052095853 -0.061694913 0.052021213 -0.01316769
-0.028200444 0.019426908 -0.046661016 0.01900771 0.039919633 0.04517078 -0.04078554 -0.08888304
0.00992495 -0.013780037 -0.08016363 -0.021853054 -0.0053416896 -0.070823744 0.037823487 0.004847219
0.019351125 -0.04289452 -0.057674572 -0.076418735 -0.053212702 -0.014964858 -0.006918714 0.042793397
0.02393748 0.019255986 -0.0305845 -0.0448031 0.021806842 -0.048155304 -0.0054387734 0.061980966
0.018351588 0.05928267 0.02489128 0.06785052 0.023681805 0.066886544 -0.0520054 -0.043338448
-0.002970725 -0.043150764 -0.007458815 0.007324822 0.06554975 -0.06734504 -0.029040238 0.09967448
-0.06216992 -0.05715744 -0.06630526 -0.01260736 -0.03657122 -0.009963338 0.0096935155 0.015685126
0.021847246 0.029104529 0.01990292 -0.010235796 -0.009373691 0.034804694 -0.015228608 -0.013358095
0.032611214 0.0545879 -0.052288413 0.047785625 -0.019764345 0.001329799 0.020353628 -0.051344424
0.029033255 0.070226446 0.014919288 0.02867271 0.06971025 -0.08224985 0.015528795 -0.078041635
-0.03162749 0.01470838 -0.0033874502 -0.013331854 -0.043695465 0.08449409 -0.007115015 -0.047831208
0.06074857 0.04014283 -0.0038586084 -0.0023601747 -0.017021423 0.008451374 0.030500492 -0.09989776
-0.09250568 -0.041675273 0.036092367 0.0561671 0.038275637 -0.014031756 -0.031429354 0.033055067
-0.044317007 -0.04314499 0.0016018534 0.052007616 0.04630413 -0.040219374 -0.06868634 -0.066233404
-0.10432459 0.06933244 -0.008740583 -0.043033987 -0.05381817 0.03499316 0.015612932 -0.0021798625
-0.050929118 0.047041878 0.036060613 -0.07877188 -0.04040877 0.040877577 0.102792434 -0.045388926
-0.04037078 0.053726044 -0.012929628 -0.07001267 0.0013826399 -0.009689642 0.018312652 0.008073049
0.06254851 -0.013520747 -0.010936013 0.054405753 0.0600967 0.0032168345 -0.026394688 0.016040651
0.03721136 -0.04644813 0.04113006 0.04061931 -0.0228599 0.03204653 -0.018709347 -0.08310953
-0.015984379 0.072631344 -0.010261811 0.07974941 0.09483405 0.025981138 -0.05703592 -0.028460061
-0.062022056 -0.047759525 0.012892631 -0.026754428 0.038146533 0.03949587 0.04773872 -0.019280668
0.007445423 0.044991188 0.01606729 -0.022280734 -0.04480465 -0.0018669284 -0.06612569 -0.012613235
-0.068055674 0.05558177 0.044099126 -0.013531479 -0.0019464861 -0.046566978 -0.03084345 -0.07567695
0.0030823029 -0.0066458397 0.035486788 -0.0295844 -0.09413823 -0.052785523 -0.045143954 0.0022898717
-0.037722018 -0.057177965 -0.0938991 -0.09264894 -0.04802869 0.0023963656 0.005830972 -0.061325237
-0.11583793 0.0036418082 -0.039888382 -0.033702854 0.044112097 0.02223572 -0.024073249 -0.057193976
0.012400405 -0.00085491454 0.04107277 0.014883157 -0.0002881125 0.0039333166 0.0044180877 -0.03356627
-0.0003106395 -0.0027280056 0.06014365 0.064616 0.110310346 0.058398463 0.0828163 -0.085231505

bias f4 [32]
00000000: 8f3c 8bbd 9a27 193d 6758 733c ccdf 513d
00000010: c711 48bd e33c 143c e4be 393d ffb3 8a3d
00000020: 7a4e 4ebd cdb1 103d e635 7d3d ed25 72bc
00000030: 481e 7cbd 0b4c a2bc 89f1 753d 6b16 243c
00000040: 2251 89bd b0b1 d8bc 4899 32bd a73e 44bd
00000050: 3a59 3b3d d6e2 4cbc a376 593d 61b2 79bd
00000060: 6a87 953d 0f2a 733d a306 463d d74d 453b
00000070: cb92 e93c e5fc 3c3d 88ac 94bc b54e 30bd
-0.0679866 0.037391283 0.01485262 0.05123882 -0.04884508 0.00904772 0.045348063 0.06772613
-0.05036781 0.035325814 0.06181898 -0.01477955 -0.061552316 -0.01981165 0.0600448 0.0100151105
-0.06704928 -0.026451916 -0.04360321 -0.047911312 0.04573939 -0.012505254 0.053091656 -0.06096113
0.07301219 0.059366282 0.048346173 0.003010621 0.02851238 0.046139617 -0.018148676 -0.04304381

weight f4 [32, 33, 3]
00000000: 3851 fe3b aa25 79bd 0caf 893c ffd3 72bd
00000010: f6ee 0bbd 691c 343d 2546 7ebd e05b e93c
00000020: 5f40 aabd 9d04 b9bc b9d8 e5bc 437d 3f3d
00000030: fd1a 9ebd 0433 c7bd f58b b3bd 7224 703c
00000040: ea31 c73c 8168 a1bd 2a0c 02bd a13b 41bd
00000050: 920f 273d 8b4e 3c3c 5cba 3fbd 6918 10bd
00000060: 7274 923d 44cd d2bb e377 903d e1ed b1bc
00000070: 3468 82bc 02f2 b73d d039 543b a4ec e2bc
00000080: 84c3 5d3d e4d2 363c 2fac 953d ba2d 0cbd
00000090: 9000 c5bd d74b 15be 919d a9bd 30d9 913c
000000a0: 5e45 5e3c d18a 8abd ebc5 383d e5d6 b03d
000000b0: 421a afbc ce2a 123d df29 6ebd 2769 87bc
000000c0: aa62 013d bf40 96bd f76d b3bd 859f c33d
000000d0: 70eb 13bd 4a07 163d 5e7c a33d 7513 0d3c
000000e0: b38c 23bc 1c7a 7c3d 8198 40bc 41f4 57bc
000000f0: a818 5dbd 2087 223c d475 9bbc 9e67 8dbc
00000100: 3bd3 23be 5f49 54be 792a 983d c578 96bd
00000110: a685 1e3e 08fe 523c 14de a7bb d1c2 063c
00000120: afec bf3d 4458 02bd 8872 3fbd 1326 cbbd
00000130: 40bf f2bd 55cb e13d 51b7 933d 6406 b5bd
00000140: e367 46bd 4cc9 a83d 1ac6 1bbe cdf9 303d
00000150: e7ec 31bc cef0 823d 6348 913d c9b7 2b3d
00000160: b160 2a3d c356 ab3c 4acf e53c 1bb2 7c3d
00000170: a8ef cebd 9733 173c 3204 dcbc f8b3 933d
00000180: 7902 0dbe 0ca5 103d c5c9 90bc c435 4abd
00000190: ef32 6c3d f82c 523d c2de 35bd 5f52 1f3d
000001a0: 8833 4cbd 9051 d9bd 9564 b83c bd07 74bd
000001b0: f712 113c d7a0 713d f326 82bb 8506 f0bc
000001c0: 336d 093d bead d3bc 5f2b 583d aa60 6bbd
000001d0: 5c55 e4bd e238 bd3c 5c3c 7d3d 3043 1a3d
000001e0: b65b 103d 382b 763d 8819 5cbc 6302 2cbd
000001f0: 5997 0c3d a28d 3fbd 6741 6abc 9bd2 5dbd
00000200: e272 a53d 5edd b4bb 186d 743b e6f3 443c
00000210: fb22 053d ec45 49bd 4757 a2bd bd6c 0abd
00000220: 7a0b 11be f6ff b4bd 95d9 b43d ea84 f13d
00000230: 4b74 343c 739c c23d 597b 1d3d bf72 b93d
00000240: 2c19 993c 6c58 9539 4a24 093d 0fcf e4bc
00000250: 91da 033c 15e7 f9bc 4620 91bc 2366 653d
00000260: 4473 3c3d 1ce9 ad3d 965d cbbc 6d04 4fbc
00000270: b404 683c dde8 d3bd 6573 4dbd 9f2c 3d3c
00000280: 4919 18bd dc8d 063d 491a f7bc c654 a2bd
00000290: 68c9 c2bd baf9 ea3d 45ef 04be 05c0 073e
000002a0: 76f9 17bd 6ad9 d4bd ed6e e33c 90b8 a33d
000002b0: 92b9 b5bd 9573 f93c 91e5 3cbd 1400 51bd
000002c0: 8f91 e43c 91c8 673c 5d48 11bd 1583 e2bc
000002d0: 1d2c 933d d664 e0bd 377a 833d 6633 50bd
000002e0: 7dd6 0d3d 6962 a13d 56fd abbd 52a9 453d
000002f0: 7084 3dbc df5f 643b d81c 003d a201 e4bd
00000300: 3c47 3e3c d237 51bd d5e9 2e3c eab7 bebd
00000310: 9a2c 783d 2c11 d43a 7178 d2bd 847d 833d
00000320: f66c 9a3c a547 813c ac78 a83d f261 6d3d
00000330: d0b4 cdbd 7e64 0dbe b4a2 d1bd 59dc 333d
00000340: 9085 1fbc 5aa8 a6bb 3c5e 5abd 5487 d5bd
00000350: 6870 dabd 6571 083d 58ef a1bd 6f0d 2fbc
00000360: 9e2a 343d c9e8 fcbb 616b 24bd 52ef 803d
00000370: 72cb 2abb 7ad4 5bbd e40d 3cbd e529 24bd
00000380: 1cf4 0d3d dc53 9dbc 1d15 c5bc 174e e13d
00000390: 89c3 f63c acc1 8d3c 8fa1 ed3c 8df1 4b3d
000003a0: 821f 133d baef 9bbb 3998 cbbd d360 3b3b
000003b0: 8b85 113b 35f5 313c 8651 a03d 0398 223a
000003c0: bc97 ce3d 5dd0 cf3d a2bd 983d bf56 623d
000003d0: 4a46 ffbd 715f 92bb 96ba 703d b007 13be
000003e0: 7e6d 4f3d 264f 0c3d 0e66 173b 9b1d 35bd
000003f0: bb5f 68bd 9f2a a33c 3717 22bd abda da3d
0.007761147 -0.060826935 0.016807102 -0.059284206 -0.034163438 0.043972407 -0.062078614 0.028486192
-0.08313059 -0.022585208 -0.028057443 0.04675032 -0.07719991 -0.09726527 -0.08766929 0.014657127
0.024315793 -0.07881261 -0.03174988 -0.047176007 0.040786333 0.0114933355 -0.046808586 -0.03517953
0.071511164 -0.006433161 0.070541166 -0.021719875 -0.015918829 0.08981706 0.0032383092 -0.02770073
0.054141536 0.011158679 0.07308232 -0.034223296 -0.09619248 -0.14579712 -0.082820065 0.017803758
0.013566343 -0.067647584 0.045110624 0.08634738 -0.021374825 0.035685353 -0.0581454 -0.016529633
0.031588234 -0.07336568 -0.087612085 0.0955191 -0.036113203 0.036628045 0.079827055 0.008610596
-0.009982276 0.06163989 -0.01175511 -0.013180793 -0.053978592 0.009919912 -0.018977083 -0.017261323
-0.15998547 -0.20731114 0.07429976 -0.07347254 0.1548067 0.012877949 -0.0051229093 0.008225159
0.09371316 -0.031822458 -0.046740085 -0.099193715 -0.11852884 0.11025111 0.07212699 -0.088391095
-0.048438918 0.08241519 -0.15212288 0.04320698 -0.010859705 0.06393586 0.07093885 0.041923318
0.04159612 0.020915395 0.028052945 0.061693292 -0.101043046 0.009228609 -0.02685747 0.07212061
-0.13770474 0.03531365 -0.017674336 -0.04936768 0.05766576 0.051312417 -0.04440189 0.038896915
-0.04985383 -0.1061126 0.022508899 -0.059577692 0.008854619 0.05899128 -0.0039719283 -0.029299984
0.033551406 -0.025839683 0.052775737 -0.057465233 -0.111490935 0.023098413 0.06182514 0.03766173
0.035243712 0.06009981 -0.0134338215 -0.041994464 0.034324024 -0.04676593 -0.01429782 -0.054155927
0.08078553 -0.005519553 0.003729647 0.012021041 0.032504063 -0.04913895 -0.07926803 -0.033795107
-0.14164534 -0.08837883 0.08830563 0.117929295 0.0110140545 0.095024966 0.03844771 0.09055089
0.01868876 0.00028485374 0.033481874 -0.027930764 0.008047716 -0.030505696 -0.017715584 0.05600561
0.046008363 0.08491728 -0.024824899 -0.0126353325 0.014161278 -0.103471495 -0.050158877 0.011546283
-0.03713349 0.03285013 -0.0301639 -0.079263255 -0.095110714 0.11473413 -0.12981899 0.13256843
-0.03710314 -0.10393031 0.027762854 0.07994187 -0.08873285 0.030450622 -0.04611737 -0.051025465
0.027901439 0.01414694 -0.0354694 -0.027650395 0.07186148 -0.10956733 0.06419795 -0.050830267
0.03462838 0.078800984 -0.08397929 0.04825718 -0.01156722 0.0034847183 0.031277508 -0.11133124
0.011613663 -0.051078625 0.010675867 -0.093124226 0.06058941 0.0016179434 -0.102768786 0.064204246
0.018850785 0.015781233 0.08226141 0.057954736 -0.10044253 -0.13807866 -0.10236111 0.04391131
-0.009736434 -0.005085987 -0.053312525 -0.104262024 -0.10665971 0.033311266 -0.07906979 -0.010684355
0.043985955 -0.00771818 -0.040141467 0.06295647 -0.0026061204 -0.05366943 -0.045911685 -0.040079016
0.03465663 -0.019205026 -0.02405792 0.110012226 0.030122535 0.017304264 0.029007701 0.049790908
0.03591872 -0.0047588022 -0.099411435 0.0028591647 0.0022204842 0.010861685 0.07828049 0.0006202461
0.10087535 0.10147164 0.074580446 0.05525851 -0.124645784 -0.004466944 0.058771692 -0.14358401
0.05064153 0.03425517 0.00231016 -0.044217687 -0.05673192 0.019917784 -0.03957292 0.10686239

bias f4 [32]
00000000: 8b01 bdbd 474a 8b3d cc07 d4bc 3942 05bd
00000010: 9210 db3b 15cf 9cbd 8bb1 85bd 036c 573d
00000020: a419 a2bd 2770 29bd 9c1f 8d3d abb5 69bd
00000030: 77e8 7fbd 4f39 363d 752a 78bd 182c 8dbd
00000040: 0042 313d ada8 cabc 1e27 353d 8386 c23d
00000050: 116c b5bd 3448 2dbd e012 a4bd 8ccc c83d
00000060: 6d70 213d b01c b7bd 668f 66bd ea2f 81bd
00000070: 1935 a9bc 1b70 5ebb c765 bc3d 15e0 08bd
-0.0922881 0.06801277 -0.025882624 -0.032533858 0.006685325 -0.07656685 -0.06528004 0.052593242
-0.07915047 -0.041366722 0.06890795 -0.057058018 -0.062477555 0.044488247 -0.060587365 -0.06893176
0.043275833 -0.024738634 0.04422676 0.09498312 -0.08858503 -0.042305186 -0.080114126 0.09804639
0.03941386 -0.089410186 -0.0562891 -0.06307967 -0.020655202 -0.0033941332 0.091991 -0.033416826

weight f4 [32]
00000000: 2a39 903f c983 923f 3f3f 743f 6a7b 973f
00000010: c3e8 793f f137 743f 93cf 913f f5bb 8e3f
00000020: ad70 8f3f bf23 963f a89c 9d3f e0f6 933f
00000030: 1681 733f ebbb 743f 64fa 8f3f b64d 983f
00000040: 73d4 983f a588 903f 3097 993f de40 8f3f
00000050: bfd9 843f c901 a33f 41cf a33f c83a 963f
00000060: 91b3 703f 0c35 823f 14dd 923f 6dc5 913f
00000070: 45f1 953f a6df 7b3f 76bc 763f 5bfe 953f
1.1267445 1.1446468 0.95409006 1.1834538 0.9762079 0.9539786 1.1391472 1.115111
1.1206261 1.1729659 1.2313433 1.1559715 0.95118845 0.9559924 1.1248288 1.1898715
1.1939834 1.1291701 1.1999264 1.1191671 1.0378951 1.273492 1.2797624 1.1736689
0.94023997 1.0172439 1.1473718 1.1388375 1.1714255 0.98388135 0.9638132 1.1718248

bias f4 [32]
00000000: fec8 f03d 961e 183e f2bf b6bc 5bcf 823e
00000010: fb13 4fbd 450d a6bc 8bb2 023e 44f4 e73d
00000020: 6557 f73d 4ab6 3a3e 195b 503e be0a 633e
00000030: 451c b1bc 5c62 08bd 76d2 0e3e 0e3b 223e
00000040: 7a3a 5b3e 29bf 143e db67 6b3e 9518 0a3e
00000050: dfc1 053d c431 723e a8c5 593e 98a5 353e
00000060: e3d5 53bd c227 f2bb 3de0 183e f4db 123e
00000070: 79ee 483e 7916 273e ec74 7d3c 73d7 073e
0.11757086 0.14855418 -0.022308324 0.25548825 -0.050556164 -0.02027 0.12763421 0.11325887
0.12077216 0.182336 0.20347251 0.22172067 -0.021619925 -0.033296928 0.13947472 0.1584284
0.21409026 0.14526047 0.22988836 0.1348594 0.032655593 0.23651797 0.21266806 0.1773895
-0.05171765 -0.0073899934 0.1492929 0.14341718 0.1962222 0.16317166 0.015469771 0.13265781

running_mean f4 [32]
00000000: afe1 7bbf 75af e4be f42b f33f a099 5e3d
00000010: 4003 1b3e dfac 1cbe ebce 34bf 83a8 c9bf
00000020: d69f b3bf 1a23 073e e89b 2cbf 3ac9 13bf
00000030: 5441 f23e 07a7 473e 0eaa da3e 96d7 103e
00000040: 916e 96bf 9b77 8a3f dbda 86bf cb54 1cbf
00000050: 8846 c8bd 7252 27bf 38db 5fbf 34ba 45bf
00000060: af81 e73e b9de 41bf c6fa cbbe d566 9dbf
00000070: 6693 53bf 0f03 1c3f 3443 b13e 2382 3dbf
-0.9839124 -0.44665113 1.8997788 0.054345727 0.15137959 -0.1530032 -0.7062823 -1.5754551
-1.4033153 0.13196984 -0.67425394 -0.5772892 0.47315466 0.1949731 0.42707866 0.1414474
-1.1752492 1.0817751 -1.0535539 -0.61066884 -0.09779078 -0.65360177 -0.87443876 -0.7723725
0.45216128 -0.7573047 -0.39839762 -1.2297007 -0.8264679 0.6094217 0.34621584 -0.740267

running_var f4 [32]
00000000: c8de c93c 5f39 523d d2ae cb3d 4b67 0d3c
00000010: 8d93 aa3b 5fae c13c 4ac5 f03c 1fe3 473d
00000020: ed1e 453d fd08 883c 3190 183d bae8 d33c
00000030: d76d 8e3c 7567 673c 110b fd3b 412f f03c
00000040: 5aa3 023d 7f52 343d b7f6 323d 9ad3 4b3c
00000050: 564f 2e3d bf3b 5d3c 6759 0f3d b5f6 1f3d
00000060: 3772 be3c 0420 b43c e59d 9c3c eb15 1c3d
00000070: 4ac7 173d e37c 353d 59f6 b03c 8f1f c03c
0.024642363 0.051324245 0.09945454 0.008630584 0.0052055777 0.023642717 0.02939095 0.048800584
0.048125196 0.016605848 0.037246887 0.025867809 0.01738636 0.014123787 0.0077222665 0.029319407
0.031894065 0.044023987 0.043692317 0.012440586 0.04255613 0.013503014 0.03499737 0.039053638
0.023247821 0.021987922 0.019118259 0.03810684 0.03705529 0.044308554 0.021601843 0.023452548

weight f4 [32]
00000000: 2e8a 983f a32e 923f ee05 753f b88e 933f
00000010: 50f9 953f 4b76 8a3f 1316 783f 3411 9b3f
00000020: d0ef 753f ce2b 783f dd35 a43f 4892 963f
00000030: 9ada 973f 761f 973f 501f 973f 9533 7d3f
00000040: 419d 993f d1a2 9e3f 6646 903f 0366 a13f
00000050: 04c2 933f f45f 7a3f b8ae 943f c650 723f
00000060: 1e3f 743f 294c 983f 480e 903f 047c 993f
00000070: 976c 933f 8893 993f 015b 903f efbd 793f
1.1917169 1.1420482 0.95712173 1.1527929 1.1716709 1.081735 0.9690868 1.2114625
0.9606905 0.9694184 1.2828938 1.1763391 1.1863587 1.1806476 1.1806431 0.9890683
1.2001115 1.2393438 1.1271484 1.2609257 1.1543584 0.9780266 1.161582 0.946545
0.9540881 1.1898242 1.1254358 1.1990972 1.1517514 1.1998148 1.1277772 0.9755544

bias f4 [32]
00000000: c2fe 473e 3e9f 3e3e 10c5 bcbd 2bdf 093e
00000010: 1c72 1d3e 0316 343b d428 b3bd 7eb5 703e
00000020: 47e9 3cbd bc78 6fbc c8d9 883e b397 3a3e
00000030: dfaa 263e b3e2 333e ce38 4e3e 588a c9bd
00000040: e9e2 213e 81c0 633e 8d7c 473e 69e9 663e
00000050: 9808 083e 9ab9 debd 9058 083e 7b4d 89bd
00000060: 6a1f 4bbd be06 353e 6ba7 db3d 5dd7 373e
00000070: 2275 383e db87 693e 452a e73d 3c54 cfbc
0.19530776 0.18615434 -0.09217274 0.13464038 0.1537556 0.002747894 -0.08748022 0.23506734
-0.046120908 -0.014616188 0.26728654 0.18221931 0.1627612 0.17566948 0.20138857 -0.0984084
0.15809216 0.22241403 0.19481106 0.22549976 0.13284528 -0.108752444 0.13315034 -0.06704231
-0.049590506 0.17678353 0.10725292 0.17953248 0.18013433 0.22805731 0.11287359 -0.02530872

running_mean f4 [32]
00000000: ca8a 18be fdcd 44bf 7cb1 dfbe 8489 4e3e
00000010: cdaa 2c3f 7a35 a2be 01ff d3be 240c cbbe
00000020: cde7 dfbe 0a33 62bf 6e4b b9be 18be 053f
00000030: 3a95 b0be d43b e4be 3e91 b8be 58e0 12bf
00000040: dabd 8fbd f3d9 cb3d 5c5d 36be bc23 83bf
00000050: 5e79 6abe ce09 1fbd 861e 603c 1325 f7be
00000060: faec 19bf a766 223e a4f5 0d3c 8241 39be
00000070: fae6 aabe 1149 d3bd e933 d03c 00a3 e5be
-0.14896694 -0.76876813 -0.43690097 0.20169646 0.6744812 -0.31681424 -0.4140549 -0.396577
-0.43731537 -0.8835913 -0.3619036 0.52243185 -0.3448885 -0.44576895 -0.3604831 -0.5737357
-0.07018633 0.0995368 -0.17809051 -1.024528 -0.2289786 -0.03882771 0.013679152 -0.48270473
-0.6012722 0.15859471 0.008664522 -0.18091395 -0.33379346 -0.10316671 0.025415378 -0.44850922

running_var f4 [32]
00000000: 9418 b83e 37c3 173f a5b6 a23e 2d30 003f
00000010: 8a0c 6e3e 70cb 1c3e 1f40 1c3e 210a d93e
00000020: 5113 653e 17e5 083f d26e 973e d824 3d3f
00000030: b1db 6a3f 0057 8f3e 7ea4 753f 6ab1 5e3e
00000040: 287a d33e 5174 f73e 8491 d53e 9bac dc3e
00000050: 5e69 633e e291 f53d 21fe c73e 6e8b 8c3e
00000060: fac9 ad3e 63c2 a03e 7b26 2f3e 1ccf 233e
00000070: 64a1 193f e50b 353e 6e16 9f3e aba0 043f
0.35956252 0.5928225 0.31779972 0.5007351 0.23246971 0.1531198 0.15258835 0.4239054
0.2237065 0.53474563 0.29576737 0.73884344 0.9174147 0.27996063 0.9595412 0.21747366
0.41304135 0.4833093 0.41712582 0.43100438 0.22208163 0.119907156 0.39061072 0.27450126
0.33943158 0.31398305 0.17104523 0.15996975 0.6001189 0.17680319 0.310718 0.5180766

weight f4 [32]
00000000: efe1 8b3f 802c 913f b5fd 803f 4b4c 933f
00000010: 4698 9b3f 62d2 a23f 8f69 793f 6c5b a03f
00000020: 1c3f 803f a488 783f 3128 7e3f 6c69 a43f
00000030: 04a1 9a3f 61ed 923f 740c ad3f e1b8 a33f
00000040: b48c 7e3f a42b 9f3f 67dd 953f 9d85 8c3f
00000050: ffe5 813f ac30 863f 4c74 963f 9a95 833f
00000060: aeeb 973f 7314 7a3f 31b3 a33f e057 9e3f
00000070: 46a2 953f b4dd a53f 05b4 a03f 8214 803f
1.0928324 1.1341705 1.0077425 1.1507658 1.2155845 1.2720454 0.97426695 1.25279
1.001926 0.970835 0.9928008 1.2844672 1.2080388 1.1478692 1.3519425 1.2790796
0.99433446 1.2435193 1.1708192 1.0978276 1.0148314 1.0483603 1.1754241 1.028003
1.1868799 0.97687453 1.278906 1.2370567 1.1690147 1.2958283 1.2554938 1.0006258

bias f4 [32]
00000000: d4d7 993d 1cc6 db3d e80a c8bd dffc f53d
00000010: 6294 503e f043 8a3e ce21 9dbc 6962 6a3e
00000020: 7beb c0bd 1e9c 1dbd fa3b 4dbd e7cc 783e
00000030: 78b8 493e 149a 3e3e b9dd 9e3e 3c72 903e
00000040: b9e3 44bd 3c7b 723e 27ac 433e 99e6 653e
00000050: 6ad9 7d3b 68eb 10be 3d6f 293e 0843 c7bd
00000060: c961 283e 6989 49bd d6ca 863e 6753 0d3e
00000070: abb1 0c3e 21ed 8a3e 453b 673e 103d a7bd
0.07511869 0.10731146 -0.09767705 0.12011122 0.20369104 0.27004957 -0.019181158 0.22889103
-0.09419914 -0.038478963 -0.050106026 0.24296914 0.19699275 0.18613464 0.31028536 0.28212154
-0.048068736 0.23679823 0.1910864 0.22451247 0.0038734325 -0.141523 0.1654634 -0.09729582
0.16443552 -0.04920331 0.26326627 0.13801347 0.1373965 0.2713404 0.22581203 -0.081659436

running_mean f4 [32]
00000000: 201a 83be 08ab bd3e 20df 893c d030 2f3e
00000010: 227a a9be fe27 eebe bfad 3abf 19f4 bb3e
00000020: d10c ddbd 81e1 30bf 12f8 2abd f8dc 753e
00000030: b14e 79bf f80a b13e 88db 193f 2e0b ecbe
00000040: b001 39be 2a2f 043f 5fee b3be 1a16 8fbf
00000050: 8edb 9a3e 0981 453d 321c 81be 5e48 b23d
00000060: f6d5 a1be 84d2 bebe 2079 10be afb0 7cbf
00000070: 2705 c13e ee65 79be 5ee9 8fbf 69f9 d4be
-0.2560587 0.3704455 0.016830027 0.17108464 -0.33100992 -0.46514887 -0.72921365 0.3670967
-0.1079346 -0.6909409 -0.041740485 0.24010074 -0.973857 0.3457868 0.60100603 -0.4610228
-0.1806705 0.51634467 -0.351428 -1.117862 0.30245632 0.04821876 -0.25216824 0.08705209
-0.31608552 -0.37269986 -0.14108706 -0.987071 0.37699243 -0.2435529 -1.1243093 -0.41596535

running_var f4 [32]
00000000: 457a 413f f72f b13e fd94 8b3d 5c9d d93e
00000010: e6e8 4c3e f79a 853e 5901 963e ccec 373f
00000020: 8b7e d03d f27d 113e 18d6 103e 57d8 b23f
00000030: 2db1 713e e915 7b3f e168 a23f 27e4 943e
00000040: a534 cb3d f337 ba3f 948a 893e 72a4 213f
00000050: ebfa 643e 686c 6d3d 3302 513e 41e9 9b3d
00000060: d080 5f3e 49af 343e 55c1 3e3e efef 383e
00000070: 6664 2f3f bc58 513e 8328 b73e ee69 e43d
0.75577193 0.34606907 0.06815527 0.42502868 0.20010719 0.2609479 0.29297903 0.718457
0.10180386 0.142082 0.1414417 1.3972272 0.23602743 0.9808031 1.2688257 0.29080316
0.099221505 1.4548324 0.2686354 0.6314155 0.22361343 0.057964712 0.20410995 0.07612849
0.21826482 0.17644991 0.18628438 0.18060277 0.6851257 0.20444006 0.35773095 0.11153017

weight f4 [32]
00000000: aa4a a33f 51f6 993f 2966 993f 5a6b 8e3f
00000010: 6d3e 943f c5e6 793f c24d 953f faa9 963f
00000020: b3c5 833f cf26 a33f 0440 a73f 4e16 a73f
00000030: 570b a83f 6bbb 943f 8caa 9f3f 3b7a 953f
00000040: 08af 833f da8d 993f 2be5 953f cba5 983f
00000050: a453 9b3f 81ba 903f cac6 823f dec8 893f
00000060: 6cac 993f 4805 923f fbf2 ad3f 0400 973f
00000070: 67c9 a53f 580c 913f 8b38 833f 52f0 923f
1.2757161 1.2028295 1.1984302 1.1126511 1.1581551 0.9761775 1.1664355 1.1770623
1.0294708 1.2746218 1.3066411 1.3053682 1.3128461 1.1619695 1.2473922 1.1677927
1.028779 1.1996415 1.1710562 1.1925596 1.21349 1.1306916 1.0216916 1.0764425
1.2005744 1.1407862 1.3589777 1.179688 1.2952088 1.1331892 1.025163 1.147959

bias f4 [32]
00000000: cb51 983e 4a78 603e b319 4d3e ad99 8ebd
00000010: cb3e 043e 0e9c d5bc 4843 133e 5c9f c2bd
00000020: 5dbd 11bd a5ed 823e 35f5 ad3e 5993 a43e
00000030: 4ea2 9f3e fcfd 0a3e 74d7 683e 2e43 103e
00000040: 21a5 19bd 9992 5d3e 2c18 113e b405 493e
00000050: b0e7 543e 0931 79bd d67e 76bd 6792 833c
00000060: 9071 443e 4bee e83d 7efc c43e e640 593e
00000070: fc2c 7f3e f2ea dc3d a8fa 63bd a383 ec3d
0.29749903 0.21920887 0.20029335 -0.06962905 0.12914579 -0.02607539 0.14381135 -0.09503052
-0.03558098 0.25571933 0.3397614 0.32143667 0.31178516 0.1357345 0.22738439 0.14088127
-0.037510995 0.21637954 0.14169377 0.19631082 0.20791507 -0.06083778 -0.060179554 0.016061021
0.19183946 0.11373576 0.38473886 0.21216163 0.24919504 0.10787 -0.055658966 0.11548545

running_mean f4 [32]
00000000: d446 22bf 82e9 1fbe 2acc bdbe 606f 85be
00000010: cbd3 90bf 28cc b43e b4de 45bf 5e27 06ba
00000020: 74b5 afbc 3f11 3cbf 2978 35bf e706 b6be
00000030: 24f7 5bbe 2150 b0bf 8d10 b5bf a9a6 6fbf
00000040: 180f 1abe 3f0e 35be 7189 86bf ad0c da3d
00000050: dad1 4f3e 7627 07be 9c5c 1dbe df8f 22be
00000060: 709a b0bd bc37 42bf 2df2 00bf a4a2 0bbf
00000070: d066 11bf 841f b3bf d84f 533b 17b4 40bf
-0.63389325 -0.1561642 -0.37069827 -0.26061535 -1.1314634 0.3531201 -0.77292943 -0.00051175605
-0.021448828 -0.73463815 -0.70886475 -0.3555214 -0.21480995 -1.3774453 -1.4145676 -0.9361368
-0.1504482 -0.17681216 -1.0510694 0.10646949 0.20294896 -0.13198647 -0.15367359 -0.15875195
-0.086232066 -0.75866294 -0.5036953 -0.54545045 -0.56797504 -1.3993993 0.0032243636 -0.75274795

running_var f4 [32]
00000000: 9148 293d 15e7 1a3d 803f 993d 9be6 af3c
00000010: 14f0 123f 7823 d13e eebf 7e3f dd9a ba3c
00000020: da9b 223e ab5e 4a3f 8869 0a3f 3053 403d
00000030: bd35 473d f136 dc3f 8b2b d83f 666e 833f
00000040: 36bd 813e 470b 963c b05f 503f 3cfb 423d
00000050: 9fc3 c13e b5b4 dc3c 4771 f43c a92c 823e
00000060: 54ec 9a3d 6058 713f af83 233d c491 9f3e
00000070: 5e1a 663f 40ef b23f 7cc7 323e 3d39 883f
0.04132897 0.037818033 0.07482815 0.021472266 0.5739758 0.40847373 0.9951161 0.022778923
0.15879765 0.790507 0.5406728 0.046954334 0.048635233 1.7204267 1.6888288 1.0268066
0.2533967 0.018315924 0.8139601 0.047602877 0.3784456 0.026941637 0.029839171 0.25424698
0.07564607 0.94275475 0.039920505 0.31165898 0.89883983 1.3979263 0.1745891 1.0642468

weight f4 [1, 129, 1]
00000000: 9d97 eebd 0739 40be 83e3 3ebe 021b dcbc
00000010: 0d15 c6bd db60 833c ae14 2a3c 9d8d 24be
00000020: d8f4 2abe 21cf 2dbe 6dcc e6bd 324a 0bbe
00000030: 7817 b3bd 74f0 133c 8127 96bb cc05 41be
00000040: 0217 b9bd fefb fabd 5411 02be d995 d9bd
00000050: f8b7 42be 3c94 72bd ee61 cbbd 4fd9 d8bd
00000060: c592 f5bd 27cd 043c 4085 41bd b779 43be
00000070: 146d 48be 7ee8 fcbd d27a 20bd 896a 06bd
00000080: 8a2e 28be cd11 15be d4b1 44be f082 dc3c
00000090: 971e 08be 1aa2 ebbd 9ef1 6bbd 09f9 e53c
000000a0: 735e febd ab2b a0bc 0ee8 45bd e822 f1bd
000000b0: 151c 20be 0b9c 1fbe d948 28be 47c0 22be
000000c0: 6268 0abd 8344 afbd cd95 dbbd 95c5 babd
000000d0: fadc ffbd 85ea 09be 0acb 563d baea 1fbe
000000e0: ef66 003d 2195 343d 454a b3bd 81df 36be
000000f0: 88be 13be 3fc9 50be a23c 08be 7e76 43be
00000100: 2da1 7dbc a4f7 a9bd 73c4 43be 29af c23d
00000110: c59f 29be eda8 3fbe e301 12be 99e5 27bd
00000120: 1a75 0dbe 6297 983d c81f e4bc 9097 983d
00000130: 80ee fabd c351 18be d33e 2abe 950a 12be
00000140: 80af 19be 84ea c73d 0df2 03be 77f6 41be
00000150: 7604 a3bd c262 39bd 082f 913d 9015 37be
00000160: 3e16 c93d dfa2 2ebe e8e5 3a3d 98a2 25be
00000170: 728b d4bd 75ec 20be c51c 09be e4e9 09be
00000180: a756 af3d b222 29be c05c 52be 650b 45be
00000190: 3f7b 293e edd8 19be e02d dfbc 1730 2dbe
000001a0: 9ae4 233e b703 9d3d e66b 03be 9375 08be
000001b0: 2caf 22be 420a 2cbe c85a 0dbe 307b f6bd
000001c0: 0257 19be 5b90 b23d e03d 4bbe 02cc 13be
000001d0: 61ef 44be 8086 3fbe 75e7 313e c79d 703d
000001e0: 514d 97bd 042d 5abe f326 37be d1d1 20be
000001f0: 8f23 35be 380d f1bd 09f4 3abe 48cd ca3d
00000200: d230 2bbe
-0.11650012 -0.18771754 -0.18641476 -0.026868347 -0.09671984 0.016037395 0.010380907 -0.16069646
-0.16694963 -0.16973545 -0.1126946 -0.13602522 -0.08744711 0.009029496 -0.004582346 -0.18849868
-0.090375915 -0.12255095 -0.12701923 -0.10624284 -0.19015491 -0.0592234 -0.09930788 -0.10588323
-0.11990885 0.008105553 -0.047246218 -0.190894 -0.1957286 -0.12349032 -0.03917963 -0.032816444
-0.16424003 -0.14557572 -0.19208461 0.026917905 -0.13292919 -0.11505528 -0.05760347 0.02807285
-0.124203585 -0.019552073 -0.048317008 -0.11774236 -0.15635712 -0.1558687 -0.16434039 -0.1589366
-0.033790953 -0.085579894 -0.107219316 -0.09119717 -0.1249332 -0.13468368 0.052439727 -0.15616885
0.031348165 0.044087533 -0.087544 -0.17858697 -0.1442815 -0.2038927 -0.1330438 -0.1908817
-0.015480322 -0.08299187 -0.19117908 0.095060654 -0.16564853 -0.18716784 -0.14258532 -0.040990446
-0.13814202 0.07450749 -0.027847186 0.07450783 -0.122525215 -0.1487494 -0.16625528 -0.14261849
-0.15008354 0.09761527 -0.12885304 -0.18941675 -0.07959835 -0.0452602 0.070890486 -0.17879319
0.098186955 -0.17054318 0.045629412 -0.16175306 -0.103781596 -0.15715201 -0.13389881 -0.13468128
0.085614495 -0.16517141 -0.20543194 -0.19242628 0.16550921 -0.15024157 -0.027243555 -0.16912876
0.16005173 0.07666724 -0.12834129 -0.13326101 -0.15887135 -0.16800788 -0.13804162 -0.12035215
-0.14974597 0.0871894 -0.19847822 -0.14433292 -0.19231941 -0.18703651 0.1737345 0.05874422
-0.07387794 -0.21306235 -0.17885952 -0.15705039 -0.17689346 -0.117700994 -0.18257155 0.099024355
-0.16717842
