synapse_selector/models/anomaly_50_conv-out.pth (torch, 147796 bytes, 25 tensors)

weight f4 [16, 1, 3]
-0.17047475 0.5226823 0.44961154 0.41730312 -0.38058487 -0.43405354 0.3809369 0.59791577
-0.46696228 0.3653362 -0.041129246 -0.48219734 0.3320394 -0.019719014 0.38602582 -0.17148289
0.3244408 -0.18193412 0.17403603 0.14802957 0.5680638 0.022764608 0.23656198 -0.22052738
0.45633852 -0.45608896 0.063949935 -0.610365 -0.24154204 0.08643007 0.42993024 -0.22157808
-0.14110357 0.13683923 -0.3432052 0.4551439 0.10632796 0.31915385 -0.1235028 -0.50490594
0.44697076 -0.16849606 0.48839068 -0.18966651 -0.3990236 -0.48468664 -0.5389349 0.2133181
00000000: ef90 2ebe 82ce 053f 7c33 e63e c1a8 d53e
00000010: 05dc c2be 443c debe 290a c33e 0211 193f
00000020: ae15 efbe 590d bb3e 2477 28bd 92e2 f6be
00000030: 1101 aa3e c589 a1bc 2da5 c53e 3699 2fbe
00000040: 1b1d a63e f04c 3abe 8036 323e 1095 173e
00000050: a16c 113f d87c ba3c 4e3d 723e eed1 61be
00000060: 34a5 e93e 7e84 e9be 2ff8 823d e140 1cbf
00000070: cc56 77be 4002 b13d d11f dc3e 5de5 62be
00000080: 747d 10be 951f 0c3e 98b8 afbe 9f08 e93e
00000090: 79c2 d93d 2268 a33e 09ef fcbd 8441 01bf
000000a0: 5ad9 e43e 3b8a 2cbe 580e fa3e f037 42be
000000b0: d24c ccbe d928 f8be a3f7 09bf 0f70 5a3e

bias f4 [16]
-0.32923803 0.27149224 -0.44386065 0.4053782 0.42042336 0.021841263 0.32866183 -0.30511567
-0.57947934 -0.30797175 0.4351677 -0.46067128 0.5160827 -0.5278898 0.30400062 0.226111
00000000: e391 a8be 0801 8b3e b441 e3be bb8d cf3e
00000010: bb41 d73e 73ec b23c 5d46 a83e 1f38 9cbe
00000020: c258 14bf 79ae 9dbe 4dce de3e 1bdd ebbe
00000030: ff1d 043f c923 07bf f8a5 9b3e a489 673e

weight f4 [32, 16, 3]
0.16530494 -0.094132885 -0.03600335 0.110454425 0.036223564 -0.043615285 -0.1435888 -0.11450438
0.032786734 -0.25902534 0.04539537 -0.2019899 -0.07420343 0.08765147 0.060436476 0.085733764
-0.02542937 -0.089818664 0.090236075 -0.11017366 -0.055981115 0.12049983 -0.12308806 0.11920898
-0.12699568 0.02523997 -0.120631285 -0.054314543 0.08606358 -0.042172723 -0.074975684 -0.07082244
-0.16599667 -0.016853392 0.057650737 0.09078397 0.096514575 -0.0044532893 0.109987564 0.16322707
0.03958644 -0.15771349 -0.21889362 -0.02019255 -0.12097317 0.034996238 0.013593561 -0.02870358
0.0064501315 0.1410967 -0.11998154 -0.16258636 0.13138227 -0.039789047 -0.16320802 0.14382058
-0.08879549 0.15341002 -0.09543772 0.08973581 -0.0867756 0.1261534 0.07749114 -0.14155836
0.0053188023 -0.00076782604 0.11630761 -0.07831955 0.045302816 -0.24197242 -0.020416196 0.014341492
0.005947888 -0.13368356 -0.017372023 -0.0057208063 0.13540104 -0.07979075 0.14282493 -0.15610176
0.06027293 0.035877332 -0.14881386 -0.005328654 -0.044657957 -0.107603006 -0.05122385 0.08549709
-0.079929814 -0.08829574 -0.11716205 -0.09410883 0.014906988 -0.058680553 0.14101887 -0.08515573
-0.14234908 -0.01781233 0.12918483 0.032794602 -0.13014877 -0.001639164 -0.2787962 0.02774709
-0.0062776725 -0.067745484 -0.044621408 0.027445903 -0.25362745 -0.070897855 -0.046993896 0.003159228
0.07303885 0.117253125 -0.21336894 -0.054091904 0.07630731 -0.24683422 0.08387618 0.0809543
-0.1198817 0.08256952 0.013356748 0.28660125 -0.005906749 -0.077711105 -0.047059946 -0.13859439
-0.09709716 0.05987587 -0.088195674 -0.13446322 -0.12445463 -0.11574935 0.13189623 0.05998433
-0.07401382 0.07344546 0.07546244 -0.17479236 -0.10821234 0.14657094 0.13218497 0.23061916
-0.10135109 0.063792124 -0.044970196 -0.080566525 0.18546395 -0.014496447 0.163172 0.0107054105
-0.043624453 -0.443979 -0.015555296 -0.16340505 -0.14051707 -0.001258703 -0.08084452 0.11211652
0.048772704 0.091238275 0.0005016708 0.05383996 -0.10630055 -0.012255019 -0.072922654 0.102364786
-0.098254085 -0.11179141 -0.079984665 0.12694564 0.031923324 0.11584576 -0.20383732 -0.030802976
0.043267347 -0.10301826 -0.026514575 0.0014152526 -0.029225385 0.024882099 -0.13018528 -0.1869995
-0.14383142 0.109735936 -0.32225603 -0.07677141 -0.071483545 0.10290439 0.013826601 0.19783844
-0.07939773 -0.009325464 0.033103395 -0.18137966 -0.01996307 -0.062705696 -0.19010746 -0.059709314
-0.10236415 -0.14621976 -0.17190158 0.010009217 -0.06864944 -0.15484896 -0.06340946 0.009547198
-0.21028319 0.08964437 -0.09642096 0.10721042 -0.11536769 -0.19710349 0.020173294 -0.15917943
-0.029359017 -0.071144074 -0.08777958 -0.0066986773 0.18624644 -0.061097346 -0.015756886 -0.07979073
0.08987634 0.10498673 0.1280409 0.025037492 -0.16724283 -0.11725542 0.06342608 -0.017735712
0.0113868555 0.03627988 -0.12539808 -0.05910006 -0.18432143 0.120595515 0.08349624 0.1299507
0.084961146 0.08720347 0.1250337 0.2862606 -0.020954825 0.115692355 0.02428013 0.07607152
0.021835074 0.04374941 0.07700344 -0.03559854 0.078472234 0.070845135 -0.13967113 0.13074973
00000000: b345 293e bec8 c0bd 4078 13bd ee35 e23d
00000010: 295f 143d f1a5 32bd f108 13be 4681 eabd
00000020: 624b 063d f89e 84be 7ff0 393d 71d6 4ebe
00000030: f8f7 97bd 9d82 b33d 3d8c 773d 2f95 af3d
00000040: 4151 d0bc d9f2 b7bd b1cd b83d baa2 e1bd
00000050: 744c 65bd 9dc8 f63d 9815 fcbd d623 f43d
00000060: 280b 02be 0ec4 ce3c 890d f7bd ed78 5ebd
00000070: 1a42 b03d 4ebd 2cbd da8c 99bd 5b0b 91bd
00000080: 08fb 29be 2010 8abc 2e23 6c3d f2ec b93d
00000090: 6fa9 c53d e6ec 91bb 2941 e13d ff24 273e
000000a0: 6425 223d a57f 21be a625 60be d96a a5bc
000000b0: c8c0 f7bd 3758 0f3d 87b7 5e3c c523 ebbc
000000c0: a05b d33b a77b 103e e2b8 f5bd 0a7d 26be
000000d0: 1389 063e d7f9 22bd 0120 27be b445 133e
000000e0: 69da b5bd 8417 1d3e da74 c3bd 69c7 b73d
000000f0: 68b7 b1bd 5b2e 013e adb3 9e3d adf4 10be
00000100: 5949 ae3b ef47 49ba af32 ee3d 0066 a0bd
00000110: 728f 393d 9ec7 77be de3f a7bc 94f8 6a3c
00000120: 80e6 c23b 58e4 08be c64f 8ebc 9a75 bbbb
00000130: 92a6 0a3e 5569 a3bd b340 123e 24d9 1fbe
00000140: bfe0 763d 1cf4 123d a962 18be fd9b aebb
00000150: 43eb 36bd f75e dcbd 1ad0 51bd 1919 af3d
00000160: 3eb2 a3bd 66d4 b4bd a8f2 efbd 21bc c0bd
00000170: 703c 743c 055b 70bd 4067 103e 2166 aebd
00000180: f5c3 11be 2aeb 91bc 0749 043e a253 063d
00000190: b845 05be 38d9 d6ba 60be 8ebe de4d e33c
000001a0: efb4 cdbb 25be 8abd f0c4 36bd 3bd6 e03c
000001b0: 75db 81be e532 91bd ac7c 40bd 0d0b 4f3b
000001c0: 6595 953d 6822 f03d 637d 5abe 798f 5dbd
000001d0: 0247 9c3d 1cc2 7cbe 46c7 ab3d 5ecb a53d
000001e0: 8984 f5bd 351a a93d 43d6 5a3c 66bd 923e
000001f0: 678d c1bb 0027 9fbd eec1 40bd b0eb 0dbe
00000200: e0da c6bd 6640 753d ef9f b4bd bab0 09be
00000210: 12e2 febd ff0d edbd ce0f 073e 21b2 753d
00000220: 8f94 97bd 936a 963d 0d8c 9a3d c5fc 32be
00000230: 6e9e ddbd b116 163e 7f5b 073e 6e27 6c3e
00000240: 2991 cfbd 72a5 823d ab32 38bd 1000 a5bd
00000250: 43ea 3d3e 8182 6dbc 9016 273e bf65 2f3c
00000260: 8eaf 32bd 3751 e3be a4db 7ebc a753 27be
00000270: b5e3 0fbe 10fb a4ba d091 a5bd 599d e53d
00000280: e3c5 473d 22db ba3d 8f82 033a 4a87 5c3d
00000290: 1ab4 d9bd 46c9 48bc 7958 95bd a1a4 d13d
000002a0: 7039 c9bd e5f2 e4bd 00cf a3bd 0afe 013e
000002b0: 08c2 023d 8b40 ed3d bbba 50be 8656 fcbc
000002c0: 1a39 313d 3dfb d2bd 1835 d9bc ff7f b93a
000002d0: 136a efbc 8bd5 cb3c 4a4f 05be cc7c 3fbe
000002e0: 8b48 13be 3cbd e03d befe a4be 543a 9dbd
000002f0: f765 92bd 89bf d23d f888 623c 2996 4a3e
00000300: 479b a2bd d5c9 18bc 6d97 073d 97bb 39be
00000310: 9889 a3bc d86b 80bd 88ab 42be c191 74bd
00000320: 4ca4 d1bd a2ba 15be f806 30be b3fd 233c
00000330: 1498 8cbd ba90 1ebe d2dc 81bd da6b 1c3c
00000340: 7a54 57be 7897 b73d 5a78 c5bd 2391 db3d
00000350: e545 ecbd 7fd5 49be 7742 a53c efff 22be
00000360: 5282 f0bc fcb3 91bd c8c5 b3bd 9480 dbbb
00000370: 63b7 3e3e 3641 7abd 9614 81bc 5269 a3bd
00000380: 1611 b83d 4803 d73d 271d 033e 6d1b cd3c
00000390: b441 2bbe 9c23 f0bd 88e5 813d 7c4a 91bc
000003a0: ef8f 3a3c 369a 143d 5b68 00be e812 72bd
000003b0: c2be 3cbe c8fa f63d 1400 ab3d cc11 053e
000003c0: 1c00 ae3d bc97 b23d d608 003e c090 923e
000003d0: 74a9 abbc 1df0 ec3d 20e7 c63c 63cb 9b3d
000003e0: 78df b23c 9532 333d fbb3 9d3d c6cf 11bd
000003f0: 0db6 a03d 4117 913d f305 0fbe 42e3 053e

bias f4 [32]
0.05334753 -0.0119392695 -0.06291447 0.015967611 -0.010385472 -0.12576924 -0.0051995227 0.09992359
-0.09369471 -0.12395846 -0.032608915 0.0058004726 0.057778023 -0.11795393 -0.10864714 0.050450947
-0.13611415 -0.046602406 -0.04115327 0.08638716 -0.057879053 -0.09182361 0.016312527 0.1415425
0.017047271 0.10027282 0.10659925 0.12698446 -0.07016678 0.12769029 0.009466173 0.034291044
00000000: f182 5a3d ed9c 43bc 4dd9 80bd 82ce 823c
00000010: d427 2abc a7c9 00be c260 aabb bda4 cc3d
00000020: 03e3 bfbd efdd fdbd ed90 05bd e411 be3b
00000030: a6a8 6c3d d491 f1bd 6482 debd a7a5 4e3d
00000040: 8261 0bbe 2ae2 3ebd 5590 28bd c0eb b03d
00000050: 9612 6dbd 040e bcbd d9a1 853c 84f0 103e
00000060: b8a6 8b3c d65b cd3d b550 da3d 3708 023e
00000070: 9ab3 8fbd 3ec1 023e 0218 1b3c c474 0c3d

weight f4 [64, 32, 3]
0.15247212 0.08406737 -0.014408047 -0.058404624 0.04231611 0.064226866 0.10695523 -0.07949882
-0.07504161 -0.016456196 -0.06778508 0.036881708 0.11349201 0.032519467 0.013978995 0.02755766
0.04605112 0.11590867 -0.02248018 0.008220057 -0.036240976 -0.19813004 -0.012489231 0.06107342
0.01888211 0.046036746 -0.07637503 -0.0045965468 -0.053750634 -0.011796855 0.11268241 0.053181287
0.08108452 0.048216313 -0.03405507 -0.074829735 0.1873214 -0.0037242924 0.08355852 -0.11008056
0.07432417 -0.13318595 0.13479343 -0.041365966 -0.003011424 0.073287345 -0.08644629 0.1295264
0.091653794 0.086008795 -0.0031434665 0.09019238 0.15144485 -0.033434536 -0.06893394 -0.055493645
-0.025120331 0.11847363 -0.029966516 -0.103426024 0.14762644 0.022597065 -0.00581203 0.046935063
0.12846468 -0.034842268 -0.12128589 -0.1293721 0.15888561 -0.027396403 -0.0036879345 -0.06478208
0.062355097 -0.046841815 0.08624354 -0.025188506 -0.02903287 -0.052714903 0.033273414 0.02425297
-0.05541015 0.14405935 -0.085811645 -0.17646748 -0.24980053 0.19052 -0.014208784 0.13880855
0.042622734 0.05906412 0.024190761 0.067256 -0.05196698 0.08857941 -0.03455101 -0.029581754
-0.16691093 -0.022722477 -0.09899997 0.07234952 0.14556451 -0.09110685 -0.0728429 0.0012427296
-0.14190255 0.06880647 0.058446687 0.016985016 0.112036146 -0.101751484 -0.12071529 -0.017521158
-0.08497248 0.00436476 0.03352073 -0.05583166 -0.02938566 0.040072236 0.1568696 -0.00213742
-0.09952709 -0.03324848 -0.14774743 -0.06025775 -0.005843491 0.062715955 -0.20833087 -0.06547899
-0.07803256 -0.023683991 0.060307212 -0.076717325 0.08256892 0.14999078 0.023260593 -0.022965271
0.11690559 -0.20455965 0.07097606 0.022858579 -0.20622087 0.03877131 0.08351601 0.07883056
0.09778368 0.02689372 0.06696552 0.044825014 -0.12215705 0.081296876 0.068535425 0.037251063
0.0731921 -0.119235896 -0.09558581 0.06626179 -0.20294309 -0.04199151 -0.021474307 0.04176726
-0.026927147 -0.13636166 -0.10450773 -0.11541981 0.18007866 0.03704892 0.032419313 -0.03747143
0.045338802 0.051555388 -0.15715565 -0.062907465 -0.0106212385 0.048337724 0.056180686 -0.091080375
-0.06046681 -0.04073192 -0.089508325 0.13034736 -0.052418437 -0.09295102 -0.029847959 0.031622816
0.05137773 -0.071163096 0.097999 0.022802979 -0.07869984 0.09323314 -0.0983957 -0.05141072
0.08045511 -0.038264222 -0.035437275 -0.04728117 -0.030679021 -0.13992518 0.108711176 -0.06271621
-0.22695765 -0.033994045 -0.09512911 -0.084106624 0.15942603 0.0039319415 -0.06822372 -0.089100614
-0.09990213 0.05683189 -0.10651337 -0.012383239 0.10642611 -0.16919556 -0.06990798 0.017815523
-0.019369626 -0.020898417 0.08632995 -0.12907928 -0.14869653 0.014291797 -0.015784752 -0.05180482
0.09037764 -0.06482031 -0.0010776339 -0.061462767 0.0060714153 -0.044220198 -0.14610861 -0.019120142
0.084136836 -0.02370213 0.095694944 -0.048804116 0.015495235 0.102999374 -0.06993969 0.026745245
0.0030132865 0.03464 -0.022462934 -0.024837313 0.08324375 -0.019391812 0.016624313 0.040225632
-0.0646787 0.04121498 0.04140123 -0.0285448 0.11952045 0.10160005 0.048362955 0.15023579
00000000: a721 1c3e 832b ac3d bb0f 6cbc b039 6fbd
00000010: a853 2d3d 6089 833d 580b db3d 47d0 a2bd
00000020: 6aaf 99bd 25cf 86bc e7d2 8abd 4611 173d
00000030: 806e e83d 2233 053d 2808 653c 9ac0 e13c
00000040: 19a0 3c3d 8661 ed3d 5b28 b8bc 6bad 063c
00000050: 6b71 14bd 9ae2 4abe a29f 4cbc 1f28 7a3d
00000060: a8ae 9a3c 0791 3c3d 836a 9cbd a19e 96bb
00000070: a029 5cbd 9947 41bc 09c6 e63d 9fd4 593d
00000080: a40f a63d 787e 453d 547d 0bbd 5540 99bd
00000090: 2ed1 3f3e 4213 74bb bb20 ab3d eb71 e1bd
000000a0: 4537 983d e661 08be 4a07 0a3e 5c6f 29bd
000000b0: 505b 45bb ad17 963d c10a b1bd 92a2 043e
000000c0: fcb4 bb3d 6125 b03d 9e02 4ebb c8b6 b83d
000000d0: 5c14 1b3e a7f2 08bd 3d2d 8dbd 4e4d 63bd
000000e0: 27c9 cdbc 4da2 f23d 577c f5bc 06d1 d3bd
000000f0: 632b 173e 7b1d b93c d772 bebb fb3e 403d
00000100: 3f8c 033e c4b6 0ebd bd64 f8bd 1f7a 04be
00000110: e9b2 223e 6c6e e0bc 46b1 71bb 78ac 84bd
00000120: 0f68 7f3d 34dd 3fbd 74a0 b03d 2058 cebc
00000130: 57d6 edbc 95eb 57bd b449 083d 2aae c63c
00000140: c1f5 62bd 4b84 133e 04be afbd e4b3 34be
00000150: b6cb 7fbe ad17 433e f6cb 68bc d423 0e3e
00000160: 2d95 2e3d 38ed 713d b42b c63c 84bd 893d
00000170: 54db 54bd 1f69 b53d 5c85 0dbd 6f55 f2bc
00000180: b3ea 2abe 7d24 babc 7fc0 cabd fc2b 943d
00000190: dd0e 153e 3a96 babd a92e 95bd 16e3 a23a
000001a0: e74e 11be 68ea 8c3d cb65 6f3d 2924 8b3c
000001b0: 3573 e53d 1563 d0bd 9439 f7bd 8888 8fbc
000001c0: 0d06 aebd 4306 8f3b 084d 093d bdaf 64bd
000001d0: 32ba f0bc c922 243d 6da2 203e f513 0cbb
000001e0: dcd4 cbbd 8f2f 08bd 1a4b 17be d5d0 76bd
000001f0: c17a bfbb 3971 803d b054 55be d919 86bd
00000200: 89cf 9fbd ee04 c2bc b204 773d f91d 9dbd
00000210: e519 a93d 2f97 193e 008d be3c aa21 bcbc
00000220: 336c ef3d 1678 51be e65b 913d ea41 bb3c
00000230: 902b 53be aace 1e3d 710a ab3d eb71 a13d
00000240: cf42 c83d 3850 dc3c 3825 893d 6f9a 373d
00000250: 7a2d fabd fa7e a63d 4d5c 8c3d 9294 183d
00000260: bde5 953d f331 f4bd 7ec2 c3bd 43b4 873d
00000270: 50d0 4fbe 4aff 2bbd e3ea afbc 2514 2b3d
00000280: 5296 dcbc 64a2 0bbe 2608 d6bd 3961 ecbd
00000290: 8a66 383e 9cc0 173d 1dca 043d a47b 19bd
000002a0: 2eb5 393d be2b 533d 69ed 20be a1d5 80bd
000002b0: b404 2ebc c7fd 453d b81d 663d 5988 babd
000002c0: 0cac 77bd 84d6 26bd 2450 b7bd c779 053e
000002d0: b7b4 56bd 1b5d bebd b583 f4bc ed86 013d
000002e0: 7471 523d f5bd 91bd b3b3 c83d 50cd ba3c
000002f0: 622d a1bd 04f1 be3d af83 c9bd 0c94 52bd
00000300: a6c5 a43d f2ba 1cbd ad26 11bd e6a9 41bd
00000310: 9252 fbbc 8c48 0fbe f7a3 de3d 5b71 80bd
00000320: 9667 68be 573d 0bbd 0dd3 c2bd 1840 acbd
00000330: 9440 233e 84d7 803b e1b8 8bbd 627a b6bd
00000340: 7d99 ccbd 8ec8 683d af23 dabd 12e3 4abc
00000350: eff5 d93d 9a41 2dbe ea2b 8fbd dcf1 913c
00000360: 0dad 9ebc 2833 abbc c2cd b03d 5c2d 04be
00000370: e743 18be 2428 6a3c 064f 81bc 4a31 54bd
00000380: ea17 b93d 83c0 84bd 653f 8dba 62c0 7bbd
00000390: b9f2 c63b 3d20 35bd 7f9d 15be d8a1 9cbc
000003a0: ef4f ac3d f82a c2bc b6fb c33d d3e6 47bd
000003b0: badf 7d3c 56f1 d23d 8a3c 8fbd d818 db3c
000003c0: 8f7a 453b ace2 0d3d 3004 b8bc 9f77 cbbc
000003d0: b37b aa3d 94db 9ebc b62f 883c a2c3 243d
000003e0: 4476 84bd 0ad1 283d 5694 293d c9d6 e9bc
000003f0: 23c7 f43d b013 d03d 3c18 463d 69d7 193e

bias f4 [64]
0.055555556 0.03227915 -0.096212715 0.023437327 -0.044234578 0.092309915 0.07875349 0.033979174
0.085084416 -0.08875902 -0.017248439 -0.04082201 -0.05005571 -0.06883453 0.0016790512 -0.021258036
0.037837204 -0.022260142 0.02219895 0.09933595 -0.097726315 -0.0714419 0.056904674 0.04476629
0.04592917 0.0875177 -0.03182197 0.10254992 0.05164551 0.099496745 0.07002852 0.060115516
0.045381494 0.092858456 0.043021612 -0.029666224 -0.09827929 -0.010854777 0.03785376 -0.011110368
-0.0462263 -0.04197716 0.026752546 0.066427894 0.05580551 0.09746049 0.08206575 0.084695406
0.07385093 0.037414625 -0.06446286 -0.040188473 -0.017351385 -0.100353844 -0.0751394 -0.04702587
-0.0058274893 -0.026055401 0.06559709 0.02740242 0.05307569 -0.028076971 -0.032107633 -0.07151697
00000000: 398e 633d 2437 043d 2c0b c5bd a3ff bf3c
00000010: 512f 35bd fb0c bd3d 8249 a13d bf2d 0b3d
00000020: bd40 ae3d 4ac7 b5bd 994c 8dbc fb34 27bd
00000030: 3707 4dbd 1ef9 8cbd 9c13 dc3a 5525 aebc
00000040: 2ffb 1a3d e75a b6bc 93da b53c a670 cb3d
00000050: bc24 c8bd 2250 92bd e014 693d db5c 373d
00000060: 3a20 3c3d 7b3c b33d c157 02bd b105 d23d
00000070: 3e8a 533d f3c4 cb3d 1d6b 8f3d b03b 763d
00000080: f2e1 393d 932c be3d 6e37 303d 9506 f3bc
00000090: a746 c9bd 3cd8 31bc 8b0c 1b3d 4308 36bc
000000a0: ca57 3dbd 3ef0 2bbd 2828 db3c 590b 883d
000000b0: 5294 643d 5e99 c73d 1712 a83d c974 ad3d
000000c0: 283f 973d 1440 193d 1b05 84bd ab9c 24bd
000000d0: 7e24 8ebc 5186 cdbd b0e2 99bd 339e 40bd
000000e0: 86f4 bebb 2372 d5bc c457 863d 0a7b e03c
000000f0: e565 593d ad01 e6bc 4b83 03bd 7d77 92bd

weight f4 [128, 64, 3]
-0.02249671 -0.051095854 -0.028038356 -0.03901729 0.039679177 0.020778844 0.05104416 0.010992929
-0.054448463 -0.005688047 -0.051814966 -0.088279895 -0.0028925922 0.025129018 -0.09555034 -0.012203465
-0.053963013 -0.035373136 0.039574683 0.02098895 -0.07397437 0.042295333 -0.02282609 0.083460875
0.08807627 -0.037283488 0.032407973 -0.025717862 0.05018188 0.060879372 0.051241923 -0.020224746
0.026654743 0.067703314 -0.08337729 -0.0672648 0.052221645 -0.12374303 0.003269679 0.07181066
0.000100728146 -0.05749967 0.01206319 0.017285347 0.070226744 -0.067582965 -0.013842124 0.010187737
0.03037023 -0.0319193 -0.02601936 0.07437832 -0.09832403 -0.0537959 -0.049611386 -0.02960805
0.03721961 0.0772248 -0.016106457 -0.06230431 -0.021694738 -0.10105758 0.027406849 0.0010362488
0.035775986 -0.04443318 -0.06997124 -0.0202694 -0.0680652 0.051136468 -0.108756155 -0.0284963
0.09684715 0.021519436 0.09644618 0.036845665 0.05552915 -0.12854719 0.08862137 0.040910993
0.004759327 0.04102287 0.052452274 -0.0718934 -0.0061995564 -0.06198285 0.0423611 -0.009211565
0.0061354535 0.0330354 -0.11819204 -0.05617172 -0.057057574 0.026121758 -0.01155444 -0.027775118
0.044643827 0.020438902 0.08888057 -0.04840171 0.029723998 -0.008791307 0.0039957426 -0.051092636
-0.018474434 -0.043533187 0.06444989 -0.0023523115 0.06510508 0.06450282 -0.07230154 -0.0601712
-0.0069268537 -0.08814738 0.06941484 0.08251432 0.014991956 0.008954672 -0.100551814 -0.017297227
-0.037888825 -0.0081648175 0.023573263 0.0050618914 -0.08419607 -0.08781566 -0.013065028 0.021262912
0.040792152 -0.020282708 -0.036080614 -0.020625835 -0.017407753 -0.04451117 -0.0435535 -0.01996169
-0.03603438 0.0049503846 -0.06685777 -0.03683933 0.04644254 0.06396968 -0.05557091 -0.0073324624
-0.024973048 0.035633758 0.059282187 -0.010194734 -0.09931769 0.08291123 -0.012968507 -0.031485822
0.014502429 0.08411395 -0.011717772 -0.012369161 0.042718187 -0.015330075 -0.022434378 0.054496568
0.022897486 0.0282769 0.05166764 0.054552693 -0.021655673 -0.06100161 0.012346175 9.042333e-05
-0.01947053 -0.08349469 0.02806684 -0.057206243 0.04117513 -0.09065743 0.05674493 0.03185113
0.10289455 -0.06317221 0.015939727 0.030713532 -0.051927973 0.018511545 -0.04985062 -0.007038161
-0.050826058 0.0028772436 -0.027153691 -0.01050636 -0.06545283 -0.089632295 0.019888787 -0.05386091
-0.052464906 -0.042272493 -0.011296089 -0.008615354 -0.08958323 0.1149312 -0.03180859 -0.014194041
-0.07450026 -0.038029253 -0.059962384 -0.04332609 0.07075362 -0.04825967 0.09421568 0.05096201
0.048004277 -0.009214632 -0.11042537 0.10152331 -0.015686702 -0.042403173 0.042433303 -0.12872903
0.023193689 -0.09850555 0.019782009 -0.026706384 0.08638276 -0.049800422 -0.0128850695 -0.086115845
-0.099230856 -0.038117457 -0.080200166 0.041750327 -0.013577694 0.012343598 0.02200405 -0.06689215
0.057701286 0.05048323 0.06614647 0.04870787 -0.0638513 -0.06515973 -0.027617466 -0.037803177
-0.0453588 -0.016845303 0.11574521 -0.043296058 -0.12302676 0.06418692 0.06566598 0.037039094
0.039480176 0.035711493 -0.025925027 0.03894215 0.012773205 0.10159481 0.050966643 -0.050793935
00000000: 054b b8bc e349 51bd b2b0 e5bc 98d0 1fbd
00000010: a286 223d 6538 aa3c ae13 513d b01b 343c
00000020: 5a05 5fbd cc62 babb ee3b 54bd 17cc b4bd
00000030: a591 3dbb 5fdb cd3c e6af c3bd 0bf1 47bc
00000040: 5208 5dbd 6ce3 10bd 1019 223d 05f1 ab3c
00000050: e07f 97bd df3d 2d3d c8fd babc 89ed aa3d
00000060: 5561 b43d 92b6 18bd 39be 043d 44ae d2bc
00000070: 848b 4d3d a65c 793d 0de3 513d 5eae a5bc
00000080: 0c5b da3c 09a8 8a3d b6c1 aabd 21c2 89bd
00000090: 5de6 553d fc6c fdbd 1c48 563b 7811 933d
000000a0: 033e d338 c684 6bbd b0a4 453c 009a 8d3c
000000b0: 0ad3 8f3d f068 8abd 13ca 62bc 77ea 263c
000000c0: fdca f83c d0bd 02bd 8e26 d5bc a953 983d
000000d0: 1c5e c9bd 1759 5cbd 4f35 4bbd 958c f2bc
000000e0: 9773 183d 0928 9e3d b0f1 83bc ce32 7fbd
000000f0: 2ab9 b1bc 47f7 cebd 5484 e03c bdd2 873a
00000100: d789 123d 91ff 35bd 154d 8fbd 030c a6bc
00000110: c465 8bbd 7974 513d 8cbb debd 1371 e9bc
00000120: cc57 c63d 8749 b03c 9385 c53d 7beb 163d
00000130: 8972 633d e0a1 03be 1f7f b53d 4992 273d
00000140: 21f4 9b3b 9907 283d 32d8 563d d93c 93bd
00000150: a625 cbbb bbe1 7dbd d582 2d3d 1bec 16bc
00000160: ea0b c93b 2150 073d ab0e f2bd 5114 66bd
00000170: 34b5 69bd 4cfd d53c d54e 3dbc a588 e3bc
00000180: 72dc 363d 7c6f a73c 0407 b63d df40 46bd
00000190: be7f f33c 6a09 10bc b8ee 823b 8346 51bd
000001a0: b257 97bc db4f 32bd 4efe 833d 3d29 1abb
000001b0: d055 853d 0e1a 843d d412 94bd 1476 76bd
000001c0: a9fa e2bb 9d86 b4bd 5e29 8e3d 45fd a83d
000001d0: d2a0 753c 9eb6 123c 1cee cdbd eab2 8dbc
000001e0: 5031 1bbd bac5 05bc b71c c13c 39de a53b
000001f0: fd6e acbd b2d8 b3bd b30e 56bc 8f2f ae3c
00000200: ac15 273d ec27 a6bc 44c9 13bd 83f7 a8bc
00000210: b49a 8ebc 5851 36bd 2865 32bd b386 a3bc
00000220: c998 13bd d636 a23b baec 88bd d6e4 16bd
00000230: 883a 3e3d 8902 833d 539e 63bd 2745 f0bb
00000240: 4794 ccbc b4f4 113d e1d1 723d d007 27bc
00000250: 1367 cbbd 5dcd a93d dc79 54bc 47f7 00bd
00000260: 999b 6d3c ef43 ac3d e6fb 3fbc 05a8 4abc
00000270: 44f9 2e3d ff2a 7bbc 4dc8 b7bc cb37 5f3d
00000280: 8293 bb3c f5a4 e73c 73a1 533d a572 5f3d
00000290: 3d67 b1bc d3dc 79bd 9c47 4a3c a8a1 bd38
000002a0: a980 9fbc 44ff aabd 6eec e53c 1851 6abd
000002b0: 41a7 283d 9aaa b9bd 5f6d 683d 5576 023d
000002c0: 61ba d23d 6e60 81bd 0894 823c f29a fb3c
000002d0: 6db2 54bd 86a5 973c 2a30 4cbd 60a0 e6bb
000002e0: fc2e 50bd 2390 3c3b 6b71 debc de22 2cbc
000002f0: 220c 86bd 2391 b7bd cfed a23c 429d 5cbd
00000300: 71e5 56bd ec25 2dbd 3b13 39bc 6a27 0dbc
00000310: 6a77 b7bd 0d61 eb3d b949 02bd 1f8e 68bc
00000320: 9893 98bd 90c4 1bbd 1e9b 75bd b376 31bd
00000330: 46e7 903d efab 45bd 27f4 c03d 8abd 503d
00000340: 22a0 443d f8f8 16bc b226 e2bd 74eb cf3d
00000350: 6681 80bc f3ae 2dbd 8bce 2d3d 8bd1 03be
00000360: b100 be3c 47bd c9bd e10d a23c 59c7 dabc
00000370: 72e9 b03d 87fb 4bbd e61b 53bc 815d b0bd
00000380: 8c39 cbbd 0d21 1cbd fc3f a4bd 6402 2b3d
00000390: fa74 5ebc cd3c 4a3c d641 b43c c0fe 88bd
000003a0: 2f58 6c3d 81c7 4e3d cd77 873d e781 473d
000003b0: 78c4 82bd 7772 85bd 063e e2bc 81d7 1abd
000003c0: 26ca 39bd 29ff 89bc d30b ed3d 3557 31bd
000003d0: 74f5 fbbd 6f74 833d e37b 863d 4eb6 173d
000003e0: f7b5 213d 3746 123d b960 d4bc ce81 1f3d
000003f0: b446 513c f110 d03d 66c2 503d 4d0d 50bd

bias f4 [128]
-0.017069 0.018305205 -0.0023450847 -0.017733617 -0.033152167 0.03946406 -0.053858366 0.024211654
-0.031086925 0.0542908 0.010653186 0.020154212 -0.027510423 0.030573715 0.033006277 0.05553392
0.010781371 0.015537448 0.06394181 0.009632447 0.03133804 -0.047671564 0.027190436 0.028945385
-0.019449836 -0.013137664 0.012815976 -0.0065038865 -0.033530995 0.023320606 -0.055661943 0.04664764
0.031142874 0.0133444555 0.025973883 -0.06436006 -0.069705494 -0.049128707 0.03412093 0.05762916
0.06681916 -0.02075492 0.02227804 0.05966598 0.061889317 0.06537731 0.03820182 0.005333111
0.06838532 -0.04204464 0.0026075619 -0.0062270924 -0.0341964 0.00091162155 -0.056679126 -0.006004457
0.05546036 0.024962423 -0.06484623 -0.066571236 0.014415257 0.022298792 -0.0034708085 0.07009263
-0.014724995 -0.00020724024 0.035706047 -0.046006233 0.05750781 0.025913212 -0.014515586 0.065550044
-0.031923316 -0.04733088 0.0822943 -0.0654798 0.060971044 -0.027692668 -0.011657606 -0.06533324
0.049146183 -0.056483123 -0.028437903 -0.015996162 0.06220821 0.0690343 -0.011290211 0.04701133
0.0015527324 -0.047800384 0.062044322 0.011588127 -0.03718158 -0.035636894 0.06428076 -0.0504486
0.04289034 -0.001516298 -0.05632825 0.06805697 0.0063798344 -0.009990895 0.049515616 0.008110159
-0.028965833 0.027471196 0.046879746 0.035844557 0.0049709408 -0.003875191 0.04425973 0.035926398
-0.052013718 0.030368596 0.0007163751 -0.031460736 0.009897407 0.008090407 -0.049390912 -0.051629905
-0.060260586 -0.014135309 0.049740884 0.052362513 0.0034703063 0.050407834 -0.00070056063 0.02026349
00000000: 4ad4 8bbc ccf4 953c feaf 19bb 1746 91bc
00000010: 91ca 07bd 11a5 213d 979a 5cbd 8557 c63c
00000020: 02aa febc 0860 5e3d b38a 2e3c 721a a53c
00000030: 8a5d e1bc ba75 fa3c 9731 073d 8977 633d
00000040: 59a4 303c c890 7e3c ecf3 823d 69d1 1d3c
00000050: 515c 003d 4243 43bd 7abe de3c df1e ed3c
00000060: 4355 9fbc 5b3f 57bc 19fa 513c 8e1e d5bb
00000070: cc57 09bd db0a bf3c c7fd 63bd 9911 3f3d
00000080: 571f ff3c b4a2 5a3c 2ec7 d43c 35cf 83bd
00000090: c1c1 8ebd 2f3b 49bd 63c2 0b3d 8e0c 6c3d
000000a0: 7cd8 883d 3906 aabc 7080 b63c 5164 743d
000000b0: a77f 7d3d 8ae4 853d 8379 1c3d 61c1 ae3b
000000c0: 9a0d 8c3d 0037 2cbd a1e3 2a3b a30c ccbb
000000d0: 8611 0cbd e3f9 6e3a 5f28 68bd 09c1 c4bb
000000e0: 672a 633d ff7d cc3c 1ace 84bd 8056 88bd
000000f0: f82d 6c3c f5ab b63c 8176 63bb ba8c 8f3d
00000100: 1b41 71bc a14e 59b9 8140 123d 0871 3cbd
00000110: 4f8d 6b3d f247 d43c c8d2 6dbc 1a3f 863d
00000120: 06c2 02bd 06de 41bd ea89 a83d 461a 86bd
00000130: c6bc 793d bcdb e2bc 8bff 3ebc 6fcd 85bd
00000140: 824d 493d d95a 67bd 9bf6 e8bc 620a 83bc
00000150: 09ce 7e3d db61 8d3d 94fa 38bc f48e 403d
00000160: 0e85 cb3a 56ca 43bd 3022 7e3d 21dc 3d3c
00000170: b64b 18bd fef7 11bd a2a5 833d 31a3 4ebd
00000180: c8ad 2f3d 85be c6ba 73b8 66bd 7461 8b3d
00000190: ee0d d13b dab0 23bc e3d0 4a3d 79e0 043c
000001a0: c149 edbc 460b e13c fa04 403d bed1 123d
000001b0: 46e3 a23b ebf6 7dbb b149 353d 8f27 133d
000001c0: 560c 55bd 90c7 f83c 1fcb 3b3a f9dc 00bd
000001d0: bc28 223c a08d 043c 204e 4abd e179 53bd
000001e0: ced3 76bd c897 67bc 19bd 4b3d 137a 563d
000001f0: 146e 633b 7278 4e3d d4a5 37ba 9eff a53c

weight f4 [16]
0.9419681 1.1389333 0.94448304 1.2245535 0.8491695 1.0335634 0.87364733 1.006814
1.1480067 1.1047318 1.0839323 0.9974791 0.8957318 0.89836305 1.1291107 1.0278021
00000000: d224 713f 91c8 913f a4c9 713f 2bbe 9c3f
00000010: 2c63 593f ce4b 843f 5aa7 5f3f 48df 803f
00000020: e2f1 923f da67 8d3f 4bbe 8a3f ca5a 7f3f
00000030: ae4e 653f 1ffb 653f b386 903f 058f 833f

bias f4 [16]
-0.17921336 0.06630381 0.053779643 -0.040464904 -0.122778326 -0.14920753 -0.03682034 0.058380462
0.023500858 0.10906368 0.005374547 -0.034959417 -0.12847418 -0.07097751 0.005968165 -0.040963825
00000000: b583 37be 4bca 873d 0b48 5c3d 87be 25bd
00000010: 3473 fbbd dcc9 18be edd0 16bd 5a20 6f3d
00000020: df84 c03c c75c df3d f81c b03b 9b31 0fbd
00000030: bc8e 03be a85c 91bd 9990 c33b afc9 27bd

running_mean f4 [16]
0.7836256 -0.2815176 0.27430388 0.18958898 1.3787874 -0.011105721 1.5542339 -0.24495132
-0.50106466 -1.3621454 0.5225506 -0.1275573 0.9387496 -0.83020186 0.16351588 -0.8967972
00000000: b09b 483f 1323 90be 8f71 8c3e 9d23 423e
00000010: 1b7c b03f c5f4 35bc 23f1 c63f 85d4 7abe
00000020: c645 00bf c85a aebf e0c5 053f 619e 02be
00000030: e551 703f 1c88 54bf b570 273e 8094 65bf

running_var f4 [16]
0.51150864 0.29872572 0.40918833 0.19059584 0.28079295 0.030861065 0.4886445 0.030708242
0.10129027 0.45911217 0.09794239 0.09896849 0.08792445 0.120981224 0.20831107 0.54854167
00000000: 3bf2 023f 94f2 983e 2281 d13e 8e2b 433e
00000010: 18c4 8f3e 58d0 fc3c 9d2f fa3e da8f fb3c
00000020: 4671 cf3d c010 eb3e 0596 c83d feaf ca3d
00000030: bc11 b43d 01c5 f73d 7f4f 553e 3a6d 0c3f

weight f4 [32]
1.0848049 1.0733198 0.9475177 0.985421 0.94064546 0.8386124 1.0037318 1.1417273
0.9691073 0.9636021 0.8897999 1.004248 0.9354394 0.9290316 1.0119287 0.9391777
0.88600737 0.98368156 0.9111562 1.0215182 0.9811684 0.9304402 1.1702956 1.3241875
1.06715 0.95536613 1.0193813 1.0528197 0.93306446 1.1063529 0.99043727 0.88458616
00000000: e3da 8a3f 8b62 893f 8590 723f 8d44 7c3f
00000010: 24ce 703f 4daf 563f 497a 803f 1f24 923f
00000020: 6a17 783f a1ae 763f edc9 633f 338b 803f
00000030: f578 6f3f 04d5 6d3f e186 813f f36d 703f
00000040: 61d1 623f 8ed2 7b3f 8841 693f 1cc1 823f
00000050: da2d 7b3f 5431 6e3f 3fcc 953f fa7e a93f
00000060: 5f98 883f e092 743f 167b 823f ccc2 863f
00000070: 50dd 6e3f f99c 8d3f 4c8d 7d3f 3d74 623f

bias f4 [32]
-0.0029011862 -0.11129556 -0.04587476 -0.05299582 -0.024063129 -0.21517976 -0.16777527 -0.108812325
-0.0458492 -0.22346064 0.040993568 -0.11326221 -0.027764648 -0.10318378 -0.18858624 -0.09470757
-0.1835445 -0.171542 -0.16525084 0.03855889 -0.20879984 -0.21660961 0.03269317 -0.0896178
-0.06530328 -0.092797 -0.06185961 -0.077581584 -0.0093903765 -0.13577431 -0.123387784 -0.03605876
00000000: d421 3ebb edee e3bd 2ce7 3bbd 2512 59bd
00000010: 0a20 c5bc 1558 5cbe 48cd 2bbe ffd8 debd
00000020: 5fcc 3bbd ded2 64be dfe8 273d 04f6 e7bd
00000030: b072 e3bc 0552 d3bd c01c 41be 0bf6 c1bd
00000040: 17f3 3bbe b5a8 2fbe 8437 29be edef 1d3d
00000050: a0cf 55be e9ce 5dbe 46e9 053d 8a89 b7bd
00000060: babd 85bd 5b0c bebd 8160 7dbd 18e3 9ebd
00000070: 18da 19bc 6c08 0bbe bcb2 fcbd 5ab2 13bd

running_mean f4 [32]
-0.21558642 -0.21548742 -0.30735397 -0.29717943 -0.52487516 0.05512027 -0.3904263 0.43004677
-0.2855022 0.74192506 -0.13322991 -0.3761586 -0.04239339 -0.40837666 -0.098867826 -0.18344158
-0.3377492 -0.4046886 -0.39477202 -0.11767384 -0.32491854 0.07711537 -0.11250946 0.095362835
-0.3404681 -0.36872315 -0.3848211 0.32825688 -0.4146034 0.06828387 -0.29777732 -0.3592374
00000000: b0c2 5cbe bca8 5cbe 805d 9dbe e727 98be
00000010: 385e 06bf cbc5 613d f5e5 c7be 172f dc3e
00000020: 582d 92be cdee 3d3f 6c6d 08be dc97 c0be
00000030: b1a4 2dbd bf16 d1be 377b cabd 1cd8 3bbe
00000040: 77ed acbe 5833 cfbe 8f1f cabe fbfe f0bd
00000050: b95b a6be aaee 9d3d 5c6b e6bd 974d c33d
00000060: d651 aebe 48c9 bcbe 4507 c5be 4911 a83e
00000070: e646 d4be 6ad8 8b3d 4576 98be f7ed b7be

running_var f4 [32]
0.25707847 0.21919735 1.2724649 0.65811217 1.1496474 0.16992143 0.16325197 0.14856881
0.3211174 0.6251464 0.14028737 0.56974596 0.73464864 0.2014881 0.235212 0.8720735
0.3354768 0.18902496 0.7094635 0.5708974 0.26873785 0.08374647 0.20555422 0.4730105
0.58881325 0.3634606 0.14453277 0.35198155 0.36905923 0.20231144 0.2256522 0.37763748
00000000: ca9f 833e 4575 603e 21e0 a23f 0a7a 283f
00000010: a527 933f e2ff 2d3e 862b 273e 6c22 183e
00000020: 8069 a43e 9809 203f 7ea7 0f3e dfda 113f
00000030: ef11 3c3f e652 4e3e 6adb 703e 3540 5f3f
00000040: 9dc3 ab3e c28f 413e 669f 353f 5526 123f
00000050: 0298 893e 4583 ab3d ce7c 523e 6f2e f23e
00000060: 77bc 163f 8217 ba3e 6600 143e ed36 b43e
00000070: 55f5 bc3e bb2a 4f3e 5f11 673e b359 c13e

weight f4 [64]
0.8522052 0.96097136 0.99935687 0.84848785 1.0121255 0.9928391 1.0554074 0.9544229
1.0698843 1.1283123 1.0059334 1.0750706 0.90707064 0.97417194 1.0369039 0.97615117
0.8879412 1.0006654 0.99892145 0.9334978 1.0464469 1.0671362 0.9784364 0.9557204
0.95080316 0.92580867 1.1346905 1.0850766 1.0325761 0.89168644 0.8879031 0.9580341
0.9444482 1.0618594 1.0108665 1.0408937 0.9423328 1.0184681 1.0754933 0.8855985
0.95348006 0.955033 0.9087809 0.96665025 1.0259249 1.0421622 0.8703531 1.1958432
0.9428038 1.0497522 0.95192033 1.0130931 1.0826232 0.95993274 1.0515423 1.13309
0.94752777 0.988733 1.0982442 1.0360324 1.0260361 1.0941353 0.9652349 0.9744718
00000000: 1f2a 5a3f 3802 763f dad5 7f3f 8036 593f
00000010: 548d 813f b42a 7e3f 9717 873f 0f55 743f
00000020: f8f1 883f 8a6c 903f 6dc2 803f ea9b 893f
00000030: c835 683f 5563 793f 44b9 843f 0be5 793f
00000040: 1d50 633f ce15 803f 51b9 7f3f b6f9 6e3f
00000050: f9f1 853f eb97 883f cf7a 7a3f 18aa 743f
00000060: d667 733f cc01 6d3f 8a3d 913f cae3 8a3f
00000070: 742b 843f 9045 643f 9e4d 633f b941 753f
00000080: 5bc7 713f 02eb 873f 1364 813f 013c 853f
00000090: b93c 713f 2a5d 823f c4a9 893f 95b6 623f
000000a0: 4517 743f 0b7d 743f dda5 683f 6476 773f
000000b0: 8251 833f 9265 853f 76cf 5e3f 6411 993f
000000c0: 975b 713f 485e 863f 0db1 733f 09ad 813f
000000d0: 6693 8a3f 27be 753f f098 863f 1809 913f
000000e0: 2e91 723f 9b1d 7d3f 4493 8c3f b69c 843f
000000f0: 2755 833f a00c 8c3f a219 773f fc76 793f

bias f4 [64]
-0.14077616 -0.0034033665 -0.13151456 -0.12662691 -0.10650083 -0.083502606 -0.14381148 -0.13253397
-0.10576131 -0.062310636 -0.08794752 -0.008465531 -0.15791045 -0.05150207 -0.07775697 -0.14368781
-0.13903797 -0.23817033 -0.15718555 -0.13380511 -0.00422539 -0.08625636 -0.16281657 -0.15814954
-0.07888171 -0.20963338 -0.124251746 -0.09073207 -0.1925338 -0.062418047 -0.14221038 -0.09120509
-0.04803504 -0.12615135 -0.030160422 -0.103171505 -0.056532096 -0.16563663 0.039341502 -0.10023726
-0.04087583 -0.12507111 -0.054170888 -0.18110327 -0.047030415 -0.029691877 -0.21066175 -0.11672956
-0.17788069 -0.12379539 -0.107375674 -0.058799393 0.05457354 -0.019845987 -0.13657519 -0.033813193
0.015380041 -0.18523595 -0.0072308336 -0.033070434 -0.02870988 -0.10750085 -0.105354436 -0.013957651
00000000: a027 10be 040b 5fbb c1ab 06be 7caa 01be
00000010: 1b1d dabd 6a03 abbd 5143 13be fcb6 07be
00000020: 6399 d8bd 7039 7fbd d41d b4bd 03b3 0abc
00000030: 47b3 21be d6f3 52bd 0c3f 9fbd e622 13be
00000040: f85f 0ebe ece2 73be 40f5 20be 3504 09be
00000050: 2475 8abb 2da7 b0bd 63b9 26be f4f1 21be
00000060: bc8c a1bd 22aa 56be b377 febd bcd1 b9bd
00000070: 9527 45be 11aa 7fbd 999f 11be bcc9 babd
00000080: 64c0 44bd d22d 01be fd12 f7bc 954b d3bd
00000090: 338e 67bd a69c 29be 8e24 213d 3149 cdbd
000000a0: 6a6d 27bd a412 00be 4be2 5dbd 2373 39be
000000b0: f7a2 40bd 613c f3bc b7b7 57be e80f efbd
000000c0: 5b26 36be 7088 fdbd c7e7 dbbd a2d7 70bd
000000d0: 8188 5f3d 0d94 a2bc 5eda 0bbe b47f 0abd
000000e0: 91fc 7b3c 7eae 3dbe a1f0 ecbb dd74 07bd
000000f0: fb30 ebbc 6829 dcbd 11c4 d7bd a2ae 64bc

running_mean f4 [64]
0.28931254 -0.340253 -0.7071699 -0.02011733 0.1653512 -0.22972465 0.11453905 -0.344398
-0.00014071676 -0.32055166 -0.22847942 -0.36157495 -0.72152114 0.21531826 0.039008237 -0.5991305
0.10561558 -0.42039272 0.36515862 0.14773683 -0.068808354 -1.0755526 -0.42085984 -0.4421925
-0.37714988 0.3370523 -0.23946665 -0.8576917 0.044823416 -0.5482248 -0.0053582177 -0.8963343
-0.7910533 -0.8274657 -0.45298088 -0.3649601 -0.8408168 -0.2139518 -0.14811994 -0.30036506
-0.4997884 0.10970429 -0.18593447 0.16315079 -0.29786763 -0.5460994 0.04241819 -0.012894981
0.1064802 0.26959816 -0.37738955 0.11936037 -0.9244689 -0.45252612 -0.5562354 -0.3785273
-0.7131262 -0.66028655 -0.39059302 0.11850467 -0.40595594 -0.38934463 -0.35450184 -0.45225146
00000000: c620 943e a435 aebe 1609 35bf 19cd a4bc
00000010: d351 293e f03c 6bbe 7393 ea3d ef54 b0be
00000020: 5e8d 13b9 591f a4be 82f6 69be 5a20 b9be
00000030: 9cb5 38bf 647c 5c3e 1ac7 1f3d 9e60 19bf
00000040: fb4c d83d b73d d7be 12f6 ba3e 5348 173e
00000050: 65eb 8cbd b5ab 89bf f17a d7be 0e67 e2be
00000060: ca19 c1be 1e92 ac3e bf36 75be af91 5bbf
00000070: c298 373d 7658 0cbf fd93 afbb 2a76 65bf
00000080: 7882 4abf cbd4 53bf 1ced e7be 0ddc babe
00000090: c53f 57bf 2e16 5bbe c1ac 17be 73c9 99be
000000a0: 44e4 ffbe a5ac e03d 9b65 3ebe 0011 273e
000000b0: 1b82 98be 2ccd 0bbf b2be 2d3d 7845 53bc
000000c0: 4b12 da3d c508 8a3e 3439 c1be 3673 f43d
000000d0: fea9 6cbf 81b1 e7be 7165 0ebf 55ce c1be
000000e0: 708f 36bf 8a08 29bf cffb c7be 94b2 f23d
000000f0: 75d9 cfbe 2e58 c7be 4481 b5be 818d e7be

running_var f4 [64]
0.2639733 0.33433774 0.2175466 0.11588657 0.22287978 0.3075716 0.30953845 0.54798704
0.30548832 0.5396592 0.3038495 0.43591356 0.20852093 0.42166695 0.23376255 0.18879825
0.34096807 0.20187408 0.18721072 0.44845927 0.506148 0.61917734 0.11056345 0.35589087
0.35303006 0.11916576 0.31485826 0.52391016 0.36546552 0.35264325 0.21270378 0.35354218
0.33501258 0.32069716 0.42779854 0.2723489 0.30945727 0.2534758 0.54676145 0.20920381
0.37863335 0.25247067 0.34752253 0.3764799 0.3302872 0.20189343 0.47304416 0.38252503
0.11693971 0.35191712 0.19427145 0.16809419 0.64849293 0.49131414 0.47293144 0.4869577
0.64064044 0.19812767 0.45256907 0.48727244 0.58372986 0.3583892 0.38936934 0.2788034
00000000: 8227 873e 512e ab3e 89c4 5e3e f055 ed3d
00000010: 993a 643e 067a 9d3e d37b 9e3e e148 0c3f
00000020: f768 9c3e 1b27 0a3f 2992 9b3e 1030 df3e
00000030: 8386 553e bbe4 d73e 735f 6f3e 5454 413e
00000040: 5e93 ae3e 14b8 4e3e 2bb4 3f3e 749c e53e
00000050: ea92 013f 6882 1e3f 176f e23d 5437 b63e
00000060: 5bc0 b43e 2e0d f43d 1a35 a13e fa1e 063f
00000070: 4c1e bb3e a88d b43e 05cf 593e 7b03 b53e
00000080: c586 ab3e 6b32 a43e 6908 db3e 5171 8b3e
00000090: 2f71 9e3e 94c7 813e 8ff8 0b3f 8639 563e
000000a0: 3bdc c13e d643 813e 79ee b13e f9c1 c03e
000000b0: 671b a93e 27bd 4e3e d832 f23e 52da c33e
000000c0: 167e ef3d 7b2e b43e 18ef 463e e220 2c3e
000000d0: a203 263f 878d fb3e 1224 f23e 8552 f93e
000000e0: 0301 243f fbe1 4a3e 22b7 e73e c67b f93e
000000f0: 526f 153f ca7e b73e 6b5b c73e 52bf 8e3e

weight f4 [128]
1.2254719 1.3212852 1.2136837 1.1841482 1.3534437 1.0931535 1.1074939 1.3256739
1.2104726 1.1880769 1.1229856 1.3050874 1.8862187 1.1994694 1.3884556 1.0250726
0.98094755 1.2805303 1.0394441 1.2659804 1.0157013 1.0568031 1.202041 1.0850458
1.0634749 1.8258651 1.050921 1.2034626 0.95792156 1.2187834 1.2540942 1.1877738
1.2391541 1.1868474 1.1133256 1.79118 1.0867902 1.0847158 1.3105918 1.374093
1.2510624 1.2572188 1.1325796 1.9358016 1.2793739 1.0830598 1.20564 1.4225551
1.0558795 1.0719799 1.6492634 1.1973562 1.1889994 1.201072 1.2672175 1.2098572
1.2229302 1.2212813 1.1872268 1.0654734 1.2321693 1.0581154 1.2974863 1.2152945
1.6936928 1.4147078 1.3409657 1.6824085 1.7635702 1.3356395 1.2691089 1.0644841
1.5646777 1.216268 1.2155814 1.1893153 1.2582037 1.3083372 1.5753461 1.283233
1.1920912 1.2324581 1.067765 1.2100623 1.2420224 1.2936612 1.2929484 1.1957911
1.2387545 1.5254225 1.1308722 1.2162594 1.2047089 1.3722805 0.9613335 1.2814134
1.738347 1.429248 1.1111981 1.2339807 1.009151 0.9522137 1.7605385 1.196567
1.258898 1.4474674 1.0774108 1.4666166 0.99852866 1.2129596 1.1892251 1.2226043
1.0536704 0.98405313 1.2515143 1.3963345 1.1771499 0.9897598 1.3030375 1.0144206
1.3132803 1.1141196 1.0838894 1.0486135 1.0016834 1.2645098 1.5405159 1.0268363
00000000: 43dc 9c3f e01f a93f fd59 9b3f 2b92 973f
00000010: a53d ad3f 74ec 8b3f 5cc2 8d3f afaf a93f
00000020: c4f0 9a3f e712 983f febd 8f3f 1b0d a73f
00000030: 9d6f f13f 3788 993f eab8 b13f 9435 833f
00000040: 611f 7b3f 6be8 a33f 810c 853f a50b a23f
00000050: 8002 823f 5345 873f 7bdc 993f c8e2 8a3f
00000060: f21f 883f f3b5 e93f 9484 863f 100b 9a3f
00000070: 593a 753f 1801 9c3f 2986 a03f f908 983f
00000080: 9a9c 9e3f 9eea 973f 7481 8e3f 6345 e53f
00000090: f11b 8b3f f8d7 8a3f 79c1 a73f 48e2 af3f
000000a0: d022 a03f 8cec a03f 5ef8 903f 59c8 f73f
000000b0: 86c2 a33f b4a1 8a3f 6952 9a3f 4916 b63f
000000c0: 0f27 873f a336 893f 101b d33f f842 993f
000000d0: 2231 983f babc 993f 2f34 a23f 9adc 9a3f
000000e0: fa88 9c3f f252 9c3f 0cf7 973f 6f61 883f
000000f0: b9b7 9d3f 5370 873f 0814 a63f c58e 9b3f
00000100: edca d83f 2515 b53f c4a4 ab3f 2959 d73f
00000110: abbc e13f 3cf6 aa3f 2972 a23f 0441 883f
00000120: 5c47 c83f abae 9b3f 2c98 9b3f 7c3b 983f
00000130: d20c a13f 9877 a73f f1a4 c93f fb40 a43f
00000140: 7296 983f 30c1 9d3f 86ac 883f 52e3 9a3f
00000150: 97fa 9e3f b196 a53f 557f a53f af0f 993f
00000160: 828f 9e3f 0b41 c33f 6cc0 903f 63ae 9b3f
00000170: e733 9a3f e3a6 af3f f419 763f 5b05 a43f
00000180: 2882 de3f 99f1 b63f bd3b 8e3f 14f3 9d3f
00000190: dc2b 813f 47c4 733f 5359 e13f 1c29 993f
000001a0: 9223 a13f 9d46 b93f 99e8 893f 18ba bb3f
000001b0: 939f 7f3f 4342 9b3f 8738 983f 4c7e 9c3f
000001c0: acde 863f e8ea 7b3f 9f31 a03f 17bb b23f
000001d0: d9ac 963f e660 7d3f efc9 a63f 89d8 813f
000001e0: 9219 a83f 799b 8e3f e3bc 8a3f f838 863f
000001f0: 2937 803f 75db a13f a02f c53f 5f6f 833f

bias f4 [128]
0.18429743 0.2644647 0.14234847 -0.1164525 0.29043245 -0.06747961 -0.122618355 0.3183936
0.17297742 0.14991435 -0.118806176 0.2708235 0.83647126 0.18640657 0.33158496 -0.06447896
-0.037356116 0.20348874 -0.06772744 0.19669087 -0.054876566 -0.07194122 0.14662652 -0.071581244
-0.09177566 0.7672221 -0.07401211 0.18213817 -0.05077761 0.21064077 0.20291586 0.15643753
0.19549334 0.1597068 -0.075974464 0.828173 -0.089636855 0.020227762 0.16605514 0.3370362
0.22063538 0.22697079 0.069447234 0.6393113 0.26755258 -0.07421743 0.16067788 0.41094655
-0.08613319 -0.09761821 0.63339967 0.15901446 0.16209786 0.13614947 0.21250427 0.14853516
0.20679845 0.18113439 0.16410728 -0.08742886 0.21241425 -0.086444914 0.2309013 0.16756888
0.4152025 0.37787735 0.52791053 0.6629644 0.643893 0.26615053 0.2623595 -0.080023274
0.38437116 0.16181922 0.13589136 0.14992045 0.2588775 0.2411583 0.48845112 0.2797581
0.1703226 0.19254 0.03827187 0.15980574 0.18470633 0.24727817 0.2438059 -0.12979886
0.23084158 0.44987577 -0.13884415 0.15987058 0.16117239 0.330911 -0.048400585 0.23571329
0.38681623 0.44773495 -0.12032096 0.18310337 0.008860858 -0.061395727 0.73188174 0.16211554
0.20279346 0.4342396 -0.111575246 0.35836625 -0.060841173 0.17649592 0.16304114 0.19565333
-0.070556335 -0.04979666 0.19207011 0.333388 0.14267118 -0.03285769 0.07826258 -0.07527984
0.25474462 -0.09937043 -0.14548422 -0.09484303 -0.012554846 0.13074876 0.544793 -0.01375182
00000000: 77b8 3c3e eb67 873e ccc3 113e a67e eebd
00000010: 90b3 943e c032 8abd 551f fbbd 7c04 a33e
00000020: fe20 313e 2683 193e a750 f3bd 61a9 8a3e
00000030: fb22 563f 5de1 3e3e 81c5 a93e 8c0d 84bd
00000040: ba02 19bd 5a5f 503e afb4 8abd 5569 493e
00000050: 40c6 60bd eb55 93bd 4325 163e 3099 92bd
00000060: e1f4 bbbd ab68 443f a993 97bd 6e82 3a3e
00000070: 2ffc 4fbd 37b2 573e 2dc9 4f3e 2931 203e
00000080: 682f 483e 2e8a 233e 8098 9bbd 2503 543f
00000090: 8793 b7bd b1b4 a53c 5c0a 2a3e 0290 ac3e
000000a0: 3eee 613e 086b 683e 5a3a 8e3d e8a9 233f
000000b0: a7fc 883e 4fff 97bd be88 243e 9667 d23e
000000c0: 9966 b0bd 0eec c7bd 7b26 223f b0d4 223e
000000d0: fbfc 253e c46a 0b3e b89a 593e 9a19 183e
000000e0: f9c2 533e 4b7b 393e bd0b 283e e70d b3bd
000000f0: 1f83 593e 080a b1bd 6471 6c3e 2d97 2b3e
00000100: 6c95 d43e 2479 c13e 2525 073f 09b8 293f
00000110: 2cd6 243f e244 883e fc53 863e 3ee3 a3bd
00000120: 4ccc c43e f0b3 253e 1b27 0b3e bf84 193e
00000130: 978b 843e 34f2 763e 4416 fa3e 743c 8f3e
00000140: 0c69 2e3e 3529 453e f7c2 1c3d 1ea4 233e
00000150: a823 3d3e 7d36 7d3e 41a8 793e fee9 04be
00000160: bc61 6c3e 1e56 e63e 292d 0ebe 1db5 233e
00000170: 600a 253e 2b6d a93e b13f 46bd d35e 713e
00000180: c70c c63e 843d e53e d66a f6bd 737f 3b3e
00000190: 222d 113c 167a 7bbd 9a5c 3b3f 9e01 263e
000001a0: 17a9 4f3e a754 de3e 9081 e4bd c87b b73e
000001b0: 9834 79bd 59bb 343e 42f4 263e 5959 483e
000001c0: d77f 90bd 95f7 4bbd 07ae 443e d5b1 aa3e
000001d0: 6518 123e c995 06bd 2248 a03d 512c 9abd
000001e0: e36d 823e b982 cbbd d1f9 14be 103d c2bd
000001f0: d7b2 4dbc 01e3 053e 8e77 0b3f 504f 61bc

running_mean f4 [128]
-0.25609377 0.099894926 -0.5030785 0.121908344 -0.57188904 -0.5074338 0.012618681 0.011245224
-0.27445826 -0.39169413 -0.1416172 0.004902098 -0.002495933 -0.18848471 0.028621962 -0.30835202
-0.10973548 -0.22337659 0.30611706 -0.35005566 0.23457672 -0.24185364 0.027384754 0.11688571
-0.13509533 -0.26929745 -0.56516635 0.10668958 0.15567826 0.04449911 -0.6559547 -0.19176784
-0.3278031 -0.2809468 -0.06649722 -0.26206526 -0.28675038 0.20218612 -0.35304117 -0.32888246
0.1653022 -0.21436992 0.30378577 -0.10316476 0.09201395 0.10233421 -0.28343675 -0.63314635
-0.106845684 -0.39292684 -0.4225173 -0.4104871 -0.1780102 -0.34126168 -0.17529707 0.101905115
-0.36897483 -0.37099782 -0.448038 -0.031571787 -0.18821047 -0.15471825 -0.34398982 0.22322842
0.009426479 -0.07885356 -0.026390653 -0.2696647 -0.14646526 -0.42177522 0.09921772 -0.6557292
-0.03750299 -0.59189373 -0.45009494 -0.39555794 -0.113044605 -0.28031886 -0.9425016 -0.32504037
-0.11006648 -0.95040846 0.11387357 -0.097712055 -0.24392621 -0.32759607 -0.079353355 -0.024375884
-0.41837868 0.21648294 -0.015128806 -0.04701488 -0.24730828 -0.19060378 0.12466179 -0.70396775
0.5601196 0.14357778 -0.29095542 0.013365278 0.070102274 0.18485922 0.011647264 -0.015280362
0.21014282 -0.08104226 0.26569483 -0.2953496 -0.2175068 -0.118129164 -0.0038944867 0.047672637
-0.12520155 -0.16426949 -0.6114366 -0.62333757 -0.30263627 -0.41365853 0.33491573 0.043992113
-0.015652455 -0.6207718 0.18911624 -0.48042312 0.3010421 -0.21990682 -1.0775396 -0.21635821
00000000: b91e 83be b695 cc3d c1c9 00bf 15ab f93d
00000010: 5267 12bf 2ee7 01bf 96be 4e3c e33d 383c
00000020: cb85 8cbe 228c c8be 1904 11be c7a1 a03b
00000030: cf92 23bb 2302 41be 9b78 ea3c 51e0 9dbe
00000040: ffbc e0bd d5bc 64be 60bb 9c3e 7f3a b3be
00000050: e134 703e 7ba8 77be fe55 e03c c661 ef3d
00000060: 6e56 0abe 5be1 89be beae 10bf 1180 da3d
00000070: 1f6a 1f3e b344 363d a6ec 27bf ca5e 44be
00000080: cfd5 a7be 42d8 8fbe b22f 88bd 6b2d 86be
00000090: f2d0 92be e109 4f3e d0c1 b4be 4863 a8be
000000a0: fb44 293e ca83 5bbe cf89 9b3e 0c48 d3bd
000000b0: cf71 bc3d 9994 d13d 9f1e 91be e115 22bf
000000c0: e9d1 dabd b52d c9be 3054 d8be 5d2b d2be
000000d0: 4e48 36be dab9 aebe 1381 33be a1b3 d03d
000000e0: 45ea bcbe 6df3 bdbe 3d65 e5be 6b51 01bd
000000f0: 3fba 40be 766e 1ebe 6f1f b0be fe95 643e
00000100: 8571 1a3c fa7d a1bd 3631 d8bc 7e11 8abe
00000110: fdfa 15be ecf2 d7be a932 cb3d dedd 27bf
00000120: bc9c 19bd 5986 17bf d872 e6be 9286 cabe
00000130: ee83 e7bd f485 8fbe c947 71bf b16b a6be
00000140: 896a e1bd f84d 73bf 8c36 e93d 421d c8bd
00000150: cbc7 79be acba a7be 0384 a2bd efaf c7bc
00000160: bb35 d6be b4ad 5d3e d0de 77bc ad92 40bd
00000170: 623e 7dbe a32d 43be ae4e ff3d 3b37 34bf
00000180: 0064 0f3f 0e06 133e 1cf8 94be 0afa 5a3c
00000190: c891 8f3d bc4b 3d3e 2ad4 3e3c 7c5a 7abc
000001a0: ae2f 573e 7cf9 a5bd 2709 883e 1038 97be
000001b0: 1aba 5ebe b4ed f1bd a53a 7fbb 6244 433d
000001c0: d634 00be 4336 28be 1c87 1cbf 0d93 1fbf
000001d0: 24f3 9abe 0dcb d3be 137a ab3e 1331 343d
000001e0: 9439 80bc e7ea 1ebf b0a7 413e 05fa f5be
000001f0: 3122 9a3e 412f 61be d1ec 89bf 028d 5dbe

running_var f4 [128]
0.114249654 0.82813203 0.42630693 0.16460721 1.4970402 0.31351098 0.13597216 0.8432229
0.5369177 0.64677304 0.36028954 0.3320501 1.5355213 0.651685 0.57947695 0.3294585
0.30961627 0.61595 0.3673808 0.52103937 0.29306352 0.25750464 0.12878588 0.29696164
0.27493113 0.85098934 0.33100492 1.2588633 0.118419446 0.70673996 0.7654916 0.35466912
0.33810565 0.6476959 0.24759798 1.4325197 0.18274383 0.58382213 0.5551084 0.63971394
0.851899 0.8112969 0.16714881 0.90974 1.0626029 0.17165974 0.91757715 1.252444
0.25536478 0.37189573 1.0944481 0.5652434 0.59644127 0.39899853 0.7539243 0.13284075
1.0551769 0.7885116 0.6148925 0.26497614 0.53079164 0.33448887 0.82188904 0.22308266
1.6302593 0.6344637 0.90247715 0.9435911 1.2171692 0.20117876 0.8613598 0.21972679
0.15611747 0.71633667 0.1481341 0.7150433 0.6567446 0.12391088 0.5324795 1.1772213
0.6576502 0.2665237 0.48595762 0.66110665 0.10780056 1.375439 0.62678546 0.37730786
0.21455175 0.37601927 0.34447545 0.2085952 0.6123245 0.8654498 0.13555785 0.43291152
0.9751191 0.6156542 0.17508762 0.7663874 0.3333526 0.087399796 0.5902573 0.22004524
0.09468865 0.77718246 0.38169485 0.8077926 0.26860648 0.20066047 0.3448609 0.51115835
0.33039004 0.23330425 0.7136743 1.3500906 0.5312265 0.17202015 1.1047902 0.21586825
0.5628437 0.32870984 0.29568642 0.3159242 0.2721478 0.5878929 0.40815043 0.71195346
00000000: b9fb e93d 7600 543f e744 da3e cb8e 283e
00000010: 039f bf3f 8384 a03e 493c 0b3e 75dd 573f
00000020: 7073 093f eb92 253f df77 b83e 7902 aa3e
00000030: f68b c43f d4d4 263f 9a58 143f c9ae a83e
00000040: 0686 9e3e e6ae 1d3f 5619 bc3e d662 053f
00000050: 6c0c 963e a6d7 833e 72e0 033e 5b0b 983e
00000060: c6c3 8c3e 70da 593f 7a79 a93e 6f22 a13f
00000070: e585 f23d e9ec 343f 42f7 433f 3197 b53e
00000080: 2f1c ad3e 66cf 253f 538a 7d3e ce5c b73f
00000090: 3321 3b3e 5e75 153f 961b 0e3f 4bc4 233f
000000a0: 0e16 5a3f 27b1 4f3f 0f29 2b3e b8e4 683f
000000b0: 5f03 883f 92c7 2f3e 56e6 6a3f 1650 a03f
000000c0: 2cbf 823e 1e69 be3e e016 8c3f cbb3 103f
000000d0: 60b0 183f 8949 cc3e 2f01 413f 6807 083e
000000e0: 0910 873f e5db 493f 9869 1d3f f4aa 873e
000000f0: f6e1 073f 2042 ab3e 5267 523f c86f 643e
00000100: 56ac d03f 376c 223f be08 673f 308f 713f
00000110: 33cc 9b3f ce01 4e3e 1382 5c3f 0f00 613e
00000120: 42dd 1f3e d761 373f 77b0 173e 140d 373f
00000130: 6a20 283f fdc4 fd3d 9450 083f 30af 963f
00000140: c35b 283f cb75 883e 70cf f83e 493e 293f
00000150: 8ac6 dc3d 630e b03f 0375 203f 7f2e c13e
00000160: 74b3 5b3e 9985 c03e 165f b03e fb99 553e
00000170: 4cc1 1c3f 1e8e 5d3f adcf 0a3e 94a6 dd3e
00000180: 68a1 793f 839b 1d3f 2b4a 333e f731 443f
00000190: 31ad aa3e aafe b23d 1a1b 173f 8a53 613e
000001a0: 1fec c13d 6ef5 463f 826d c33e 7fcb 4e3f
000001b0: ca86 893e f079 4d3e 9c91 b03e 46db 023f
000001c0: e228 a93e 4fe7 6e3e 5cb3 363f c5cf ac3f
000001d0: 76fe 073f 0d26 303e c469 8d3f 910c 5d3e
000001e0: 8616 103f a84c a83e 3664 973e d1c0 a13e
000001f0: f556 8b3e 2680 163f 18f9 d03e 9542 363f
