models/peak_detection-conv_output.pt (torch, 134722 bytes, 9 tensors)

conv1.weight f4 [16, 1, 3]
0.19036803 0.29511446 0.03898573 0.313077 -0.60937315 0.6126456 -0.015912041 -0.19450776
0.00036549484 -0.30404842 0.3008808 -0.02599774 0.43721157 -0.081925176 -0.09221155 -0.18785931
0.12022516 0.04594013 -0.26094654 0.66146994 -0.5459014 -0.31173635 -0.0026397344 -0.032170277
-0.35649338 -0.447488 -0.14742701 0.05579542 -0.011148834 -0.09165196 -0.17859714 0.4298975
0.26117596 0.5273655 -0.34165204 -0.12002983 -0.6108186 0.25003085 -0.02496095 0.25166732
0.54724187 -0.53149563 -0.14550023 -0.47741726 -0.29591626 -0.4518829 0.17592463 0.57137567
00000000: d6ef 423e 3e19 973e 80af 1f3d a14b a03e
00000010: e1ff 1bbf 58d6 1c3f f859 82bc 0b2d 47be
00000020: e39f bf39 3cac 9bbe 0c0d 9a3e 36f9 d4bc
00000030: 32da df3e 63c8 a7bd 69d9 bcbd 315e 40be
00000040: 9c38 f63d b82b 3c3d c99a 85be 1856 293f
00000050: 32c0 0bbf e89b 9fbe 65ff 2cbb fbc4 03bd
00000060: 4d86 b6be 261d e5be 1bf7 16be bd89 643d
00000070: 99a9 36bc 06b4 bbbd 2be2 36be 861b dc3e
00000080: dbb8 853e 6d01 073f 04ed aebe 33d2 f5bd
00000090: 9c5e 1cbf 0b04 803e e87a ccbc 8ada 803e
000000a0: 0b18 0c3f 1910 08bf 03fe 14be 0970 f4be
000000b0: 5682 97be 325d e7be 9625 343e ad45 123f

conv1.bias f4 [16]
-0.54110163 -0.28324226 0.24977086 0.09603828 0.21837983 0.10479848 0.22008456 0.46729198
-0.19240056 -0.23840442 -0.41247573 -0.100837015 0.6079534 -0.013039154 0.3036263 -0.28400654
00000000: a385 0abf 2105 91be efc3 7f3e b8af c43d
00000010: f69e 5f3e 96a0 d63d d95d 613e e540 ef3e
00000020: a704 45be 4a20 74be 0530 d3be a383 cebd
00000030: d6a2 1b3f 2da2 55bc e874 9b3e 4e69 91be

conv2.weight f4 [32, 16, 3]
-0.011035596 -0.20087759 -0.22756012 -0.054367837 -0.09123523 -0.20814231 0.03600697 -0.046899766
0.08521631 0.091693796 0.061448444 0.29111707 0.19343986 0.17824881 0.012355778 -0.07716535
0.00037773311 0.14794353 0.08160225 0.049521014 -0.46698174 -0.07648327 0.014466701 -0.13554953
0.14093971 -0.09317768 -0.08410978 0.14211348 0.02512635 -0.028655356 0.018095244 -0.17793788
-0.044622652 -0.48633134 0.09863911 0.13218321 -0.017807588 0.16374537 0.38762045 0.169775
-0.05799663 0.06997472 -0.019806141 -0.034674123 0.08717863 -0.2324609 -0.19292869 -0.32184803
-0.09790016 0.14842848 0.07775362 -0.0850748 -0.043708287 0.12670217 -0.04833348 0.007700588
-0.08813783 0.30699354 0.17717035 -0.13926347 -0.09162013 0.1340974 0.08928096 0.13129102
-0.110871434 -0.016974788 0.20330384 0.17283079 -0.2326145 0.15391482 -0.11398623 -0.29373246
0.041316867 0.07173238 -0.12631784 -0.10780181 0.16245098 0.08033857 0.37590012 -0.06216203
-0.22049458 -0.63783514 -0.2735043 0.052160937 0.040635955 -0.29568294 -0.36395139 -0.17605622
0.3348955 0.077089496 0.14158073 -0.056143932 0.12527362 0.30561572 0.0032247063 -0.52338827
-0.016270706 0.06353465 0.07923804 0.0970724 -0.28113237 0.33890355 -0.115942985 -0.05976104
-0.10742847 -0.026980598 0.19593865 -0.23789807 0.11233488 -0.02483685 0.02768973 -0.1838787
0.115365155 -0.016233338 -0.36567268 0.40523553 -0.24829295 0.16856068 0.16625223 0.16552888
0.037186168 0.07924117 0.005688033 0.12887277 -0.064782456 0.16057841 0.058799364 0.10185984
-0.080376886 0.39767265 -1.0052433 0.04983982 -0.0137547925 -0.1259266 -0.2970235 -0.19390556
0.23375233 -0.120584175 0.09224558 -0.0074878545 0.080351636 0.13064636 -0.12333815 -0.58660287
0.31834906 0.14752497 0.006145053 -0.024855027 0.036561742 -0.07720453 0.06982581 -0.021302877
-0.17001237 0.0014759939 -0.05476672 0.03408749 0.20520765 0.090688035 -0.054306686 0.16213171
-0.104345545 -0.1878697 0.21640056 -0.25743645 -0.13002919 -0.20050855 0.07616245 -0.06263786
0.021418035 0.08375728 0.0085374955 0.15873066 0.11094083 -0.1398547 0.20041265 -0.009311844
-0.21629432 -0.574266 0.6797595 0.117759116 -0.17392363 0.39378828 -0.14223321 0.37224472
0.03050987 -0.03618206 0.033768464 0.106852934 -0.014694798 -0.19668646 -0.40918913 -1.3762892
-0.043030642 0.0038192216 -0.1286178 0.008124754 0.05919801 -0.11715391 0.037841354 0.065843366
0.037406642 0.11988455 -0.026007935 -0.1454462 -0.1389077 -0.029204778 0.0063361153 -0.14391728
-0.13160163 -0.118213736 -0.063131824 -0.0153254485 0.014258091 -0.02669913 0.082187265 0.051640626
-0.0047055315 -0.087448135 0.11591894 -0.12501861 -0.057385907 0.013450433 -0.15797292 0.076018855
-0.16777733 0.038838167 -0.15778717 -0.15763459 0.041392386 -0.07942883 0.079919636 0.0096284
-0.015840309 -0.1225769 -0.02922765 -0.10208741 0.09429777 -0.021067958 -0.13742933 -0.09350036
-0.007003009 -0.10796107 -0.13861962 -0.08666135 0.07991066 0.077807814 0.09886403 -0.13762797
-0.012057498 0.012862906 -0.026687713 -0.08970687 0.0173021 0.0070290472 0.056015998 -0.11117209
00000000: a5ce 34bc dbb2 4dbe 8505 69be cfb0 5ebd
00000010: 89d9 babd 4223 55be 0b7c 133d f819 40bd
00000020: e485 ae3d f5c9 bb3d 5db1 7b3d 4c0d 953e
00000030: 1915 463e db86 363e e46f 4a3c de08 9ebd
00000040: 7b0a c639 827e 173e 151f a73d 8cd6 4a3d
00000050: 3b18 efbe 43a3 9cbd be05 6d3c 7fcd 0abe
00000060: 8052 103e f1d3 bebd c041 acbd 3286 113e
00000070: c6d5 cd3c a3be eabc 7a3c 943c 5935 36be
00000080: 3ec6 36bd 6c00 f9be 4d03 ca3d 095b 073e
00000090: 38e1 91bc deac 273e 3076 c63e 7fd9 2d3e
000000a0: e08d 6dbd e84e 8f3d 7d40 a2bc 7406 0ebd
000000b0: b68a b23d 3b0a 6ebe 198f 45be 44c9 a4be
000000c0: e17f c8bd a3fd 173e 4a3d 9f3d b23b aebd
000000d0: 7607 33bd 37be 013e 54f9 45bd 3755 fc3b
000000e0: 9b81 b4bd 422e 9d3e 256c 353e 159b 0ebe
000000f0: 56a3 bbbd d450 093e f0d8 b63d 2771 063e
00000100: 9010 e3bd b60e 8bbc e22e 503e 8efa 303e
00000110: 7f32 6ebe d99b 1d3e 9d71 e9bd 1a64 96be
00000120: e03b 293d 6de8 923d 7759 01be 32c7 dcbd
00000130: 8d59 263e 8c88 a43d fb75 c03e 9d9d 7ebd
00000140: 55c9 61be 2a49 23bf c108 8cbe b5a6 553d
00000150: e371 263d c163 97be d657 babe 1548 34be
00000160: 6c77 ab3e 19e1 9d3d 8afa 103e 2ef7 65bd
00000170: ba47 003e aa79 9c3e 9855 533b c6fc 05bf
00000180: 254a 85bc 741e 823d 8e47 a23d e5cd c63d
00000190: 95f0 8fbe c484 ad3e 8473 edbd fec7 74bd
000001a0: 7503 dcbd 6a06 ddbc 24a4 483e 8d9b 73be
000001b0: d40f e63d a676 cbbc 93d5 e23c b34a 3cbe
000001c0: 9144 ec3d c7fb 84bc 7339 bbbe 087b cf3e
000001d0: 8240 7ebe 2c9b 2c3e 063e 2a3e 6780 293e
000001e0: 8650 183d 3249 a23d ae62 ba3b 39f7 033e
000001f0: aaac 84bd ab6e 243e 9ad7 703d e49b d03d
00000200: a39c a4bd c09b cb3e d0ab 80bf d724 4c3d
00000210: c85b 61bc e7f2 00be 7713 98be 2e8f 46be
00000220: c55c 6f3e d6f4 f6bd 40eb bc3d ad5c f5bb
00000230: 668f a43d 29c8 053e b698 fcbd 9b2b 16bf
00000240: a6fe a23e c910 173e 715c c93b c59c cbbc
00000250: c4c1 153d 691d 9ebd d600 8f3d 5f83 aebc
00000260: b917 2ebe 2376 c13a 1153 60bd 539f 0b3d
00000270: f421 523e a6ba b93d b070 5ebd db05 263e
00000280: 1eb3 d5bd ea60 40be 1c98 5d3e b6ce 83be
00000290: 5f26 05be 1d52 4dbe 0ffb 9b3d 4748 80bd
000002a0: e074 af3c f088 ab3d dae0 0b3c 4a8a 223e
000002b0: f234 e33d 1236 0fbe f938 4d3e b490 18bc
000002c0: 427c 5dbe 1903 13bf b804 2e3f b12b f13d
000002d0: 0919 32be 9e9e c93e 95a5 11be dc96 be3e
000002e0: d6ef f93c a433 14bd cd50 0a3d b6d5 da3d
000002f0: 73c2 70bc 2d68 49be 3d81 d1be 3f2a b0bf
00000300: e640 30bd e84b 7a3b 62b4 03be b01d 053c
00000310: 9d79 723d 64ee efbd 89ff 1a3d e3d8 863d
00000320: b537 193d 0886 f53d 980e d5bc d9ef 14be
00000330: d23d 0ebe dc3e efbc 309f cf3b 0d5f 13be
00000340: 94c2 06be 0b1a f2bd 424b 81bd 9717 7bbc
00000350: c59a 693c 22b8 dabc cc51 a83d 1f85 533d
00000360: dc30 9abb 0218 b3bd e966 ed3d e104 00be
00000370: 7c0d 6bbd 345f 5c3c a7c3 21be c6af 9b3d
00000380: d2cd 2bbe c514 1f3d f692 21be f66a 21be
00000390: 108b 293d 95ab a2bd e8ac a33d 70c0 1d3c
000003a0: 89c3 81bc 9909 fbbd d36e efbc 3413 d1bd
000003b0: 301f c13d b696 acbc 46ba 0cbe 1e7d bfbd
000003c0: 7f79 e5bb b21a ddbd 4df2 0dbe 827b b1bd
000003d0: 33a8 a33d b459 9f3d 3979 ca3d 59ee 0cbe
000003e0: d08c 45bc f0be 523c 31a0 dabc 3cb8 b7bd
000003f0: 22bd 8d3c ec53 e63b 0871 653d 31ae e3bd

conv2.bias f4 [32]
0.13651006 -0.15293835 -0.17067282 0.06934276 -0.019806284 -0.08558023 -0.02202519 -0.001213738
0.005856322 0.101796515 0.055818856 0.06767588 0.07423964 -0.24706674 0.015177823 -0.12393844
0.07306436 0.27942264 -0.064867415 -0.04880942 0.17329216 0.26177406 0.07188843 0.12490376
0.12942709 0.08525643 0.000308905 0.06521353 -0.07887583 0.01210169 0.18281814 0.1556243
00000000: 4bc9 0b3e df9b 1cbe dbc4 2ebe 9403 8e3d
00000010: ca40 a2bc b044 afbd 2c6e b4bc 4a16 9fba
00000020: 64e6 bf3b b17a d03d 50a2 643d a799 8a3d
00000030: f40a 983d 10ff 7cbe 67ac 783c 70d3 fdbd
00000040: c4a2 953d 7c10 8f3e 35d9 84bd 63ec 47bd
00000050: 8073 313e 4007 863e 3e3a 933d 8bcd ff3d
00000060: 8988 043e ec9a ae3d 87f4 a139 ac8e 853d
00000070: a789 a1bd 2b46 463c ae34 3b3e fa5b 1f3e

conv3.weight f4 [64, 32, 3]
-0.20012133 -0.27709016 0.11157874 -0.06495444 0.18359101 -0.3132267 -0.05306541 0.023486285
0.6446694 0.027012505 -0.013244647 0.012199913 -0.07292075 -0.010444917 -0.060151633 0.03994702
-0.03149634 -0.08003956 -0.04640359 0.06484422 0.08330331 -0.7889698 0.12939084 -0.16566928
0.022700557 -0.36440793 -0.1280022 0.2869625 0.041104317 0.14896274 -0.03586908 -0.060946327
-0.039449856 -0.42002434 -0.056436464 0.20830625 -0.014672354 0.11804361 -0.16265404 0.008446067
0.13003893 -0.60834014 0.30991167 0.14001592 -0.21976867 -0.138747 0.04651618 -0.21667178
0.15394464 0.0069392077 -0.6007949 0.096663356 0.103308916 0.10743785 -0.08995671 0.0634707
0.07862868 0.12721896 -0.124442324 -0.13036332 -0.29428092 0.09888923 0.26587853 0.07508551
-0.035347596 -0.37692356 0.29460904 -0.023978988 0.20383203 0.113333285 -0.05266207 -0.05958083
-0.25605893 -0.27326044 -0.21777885 -0.077702515 -0.17020322 0.08765526 0.091690645 0.041289385
-0.22771522 0.16262099 0.00240851 0.16966118 -0.08988503 -0.041009642 -0.09777376 -0.42207617
-0.20173818 0.0049718274 0.310893 -0.0066317376 -0.33808675 0.04026738 -0.10953986 -0.26464912
0.14652354 -0.03192794 0.10188795 -0.07054438 -0.21679963 -0.3314858 0.036191143 0.06587006
-0.06251498 0.23996207 0.06621569 -0.115298785 -0.059679158 0.067310624 -0.0066994266 0.03417065
0.0007775728 -0.021489875 -0.03374665 0.066007674 0.087784536 -0.07971165 0.012203215 0.054743208
-0.17356724 -0.5002353 -0.008199283 -0.012522214 -0.011318059 -0.32075024 0.009522453 -0.06852592
4.7485046e-05 -0.06442095 -0.053321972 0.11940561 0.19143422 -0.04564497 0.02116838 0.122899465
-0.05882852 -0.5287052 -0.096066765 -0.06706074 0.22872847 -0.024530435 0.10962066 -0.36191276
0.04303943 0.039766014 -0.22257085 0.42396283 0.36978632 0.25564927 0.055973325 0.049373727
0.039593108 -0.1117799 -0.061071258 -0.18612812 0.017604483 -0.26754013 -0.09289978 -0.026819764
0.01677184 -0.13106616 -0.11061264 -0.33108142 0.21699281 0.028578117 0.13995236 0.1767897
0.022444079 -0.37071317 -0.34045556 0.19405866 0.06724188 0.09280147 -0.2888006 0.22644138
0.60571086 0.08564301 0.1833334 -0.02432904 -0.080243774 -0.0048245657 0.07486968 0.25769213
-0.038029842 -0.04367723 0.043544702 0.27987146 0.31380525 -0.14889619 -0.042906113 0.15203205
0.04405251 -0.00038899167 0.09901075 0.13032159 0.024846908 -0.45001444 0.019156853 -0.07327205
-0.21195832 -0.3229523 0.20856331 0.17964166 0.018534815 0.031879578 0.012770719 0.049926285
0.066264585 0.021035526 0.052002784 -0.04660805 -0.019773362 -0.20439403 -0.16351643 -0.020635303
-0.10330863 -0.46840292 -0.16235107 0.27675563 -0.02871572 -0.08461215 -0.059594654 -0.062156204
0.05108504 -0.13129471 -0.22446571 -0.07203417 0.098362416 0.18301515 0.3020714 -0.04314778
0.02006903 -0.30047667 0.15206859 0.1948873 0.14333223 0.059955314 -0.032996852 -0.12956314
-0.029319057 0.13648075 0.08818478 0.040973432 -0.181455 0.26836947 0.037380263 -0.00044532007
-0.08732186 -0.114940554 -0.20581754 -0.10891945 -0.04946725 -0.13650922 -0.51810914 0.084677435
00000000: 9bec 4cbe c3de 8dbe 6583 e43d d506 85bd
00000010: 48ff 3b3e 405f a0be 1e5b 59bd 4f66 c03c
00000020: 0e09 253f 5449 dd3c 1300 59bc 25e2 473c
00000030: 7957 95bd 2821 2bbc 8f61 76bd 7d9f 233d
00000040: 4e02 01bd c8eb a3bd b111 3ebd 0ccd 843d
00000050: ed9a aa3d edf9 49bf 087f 043e 35a5 29be
00000060: 85f6 b93c ad93 babe 0213 03be c0ec 923e
00000070: 005d 283d b089 183e 75eb 12bd dba2 79bd
00000080: 2c96 21bd 6e0d d7be ec29 67bd 3c4e 553e
00000090: 5064 70bc d9c0 f13d c88e 26be 5f61 0a3c
000000a0: ed28 053e 2ebc 1bbf beac 9e3e 5560 0f3e
000000b0: 0a0b 61be b213 0ebe c087 3e3d 35df 5dbe
000000c0: aaa3 1d3e 4b62 e33b b2cd 19bf 70f7 c53d
000000d0: a093 d33d 6008 dc3d 393b b8bd edfc 813d
000000e0: 1308 a13d b045 023e 9edb febd f67d 05be
000000f0: fdab 96be 7086 ca3d 3b21 883e 6fc6 993d
00000100: a4c8 10bd 20fc c0be ffd6 963e 956f c4bc
00000110: 58b9 503e 481b e83d 2fb4 57bd 070b 74bd
00000120: 281a 83be cbe8 8bbe 6b01 5fbe 7f22 9fbd
00000130: c149 2ebe 9a84 b33d 4ec8 bb3d 0f1f 293d
00000140: 2e2e 69be 1e86 263e 18d8 1d3b a9bb 2d3e
00000150: a515 b8bd baf9 27bd 9c3d c8bd 5e1a d8be
00000160: 7494 4ebe b6ea a23b 5e2d 9f3e 0c4f d9bb
00000170: b519 adbe 69ef 243d 6f56 e0bd 1780 87be
00000180: 440a 163e dfc6 02bd a1aa d03d 9279 90bd
00000190: b900 5ebe 82b8 a9be 2a3d 143d e2e6 863d
000001a0: db07 80bd 9eb8 753e 179c 873d c521 ecbd
000001b0: 2272 74bd 27da 893d dd86 dbbb 86f6 0b3d
000001c0: 07d6 4b3a 890b b0bc ed39 0abd 082f 873d
000001d0: 61c8 b33d dd3f a3bd feef 473c 6a3a 603d
000001e0: 9cbb 31be 6c0f 00bf 4956 06bc f929 4dbc
000001f0: 616f 39bc 6039 a4be 1004 1c3c 5157 8cbd
00000200: ae2a 4738 22ef 83bd 2468 5abd ee8a f43d
00000210: 5507 443e 38f6 3abd 4f69 ad3c b7b2 fb3d
00000220: 2df6 70bd 3959 07bf a7be c4bd 2457 89bd
00000230: cc37 6a3e 0df4 c8bc cc80 e03d a14c b9be
00000240: 1d4a 303d b0e1 223d 9de9 63be a811 d93e
00000250: a254 bd3e 76e4 823e 4944 653d 1b3c 4a3d
00000260: 622c 223d dcec e4bd db25 7abd 5f98 3ebe
00000270: 4737 903c 05fb 88be 3d42 bebd 1fb5 dbbc
00000280: 1965 893c 3536 06be e188 e2bd 8183 a9be
00000290: 5d33 5e3e a81c ea3c ac4f 0f3e 5c08 353e
000002a0: a5dc b73c 1ece bdbe 3150 aebe 50b7 463e
000002b0: 1cb6 893d b20e be3d acdd 93be 40e0 673e
000002c0: de0f 1b3f 9a65 af3d c0bb 3b3e b24d c7bc
000002d0: d956 a4bd 6417 9ebb 4655 993d 39f0 833e
000002e0: 2ec5 1bbd e5e6 32bd ee5b 323d 504b 8f3e
000002f0: 15ab a03e 3e78 18be 52be 2fbd 4aae 1b3e
00000300: 6870 343d 94f1 cbb9 26c6 ca3d 0673 053e
00000310: be8b cb3c 4b68 e6be d5ee 9c3c a80f 96bd
00000320: 9a0b 59be 015a a5be 9f91 553e fcf3 373e
00000330: 53d6 973c 2994 023d 473c 513c 817f 4c3d
00000340: bab5 873d b252 ac3c df00 553d 15e8 3ebd
00000350: bffb a1bc ab4c 51be da70 27be 5e0b a9bc
00000360: 7a93 d3bd 82d2 efbe 5c3f 26be eab2 8d3e
00000370: 3b3d ebbc 2349 adbd 8619 74bd 8197 7ebd
00000380: 8c3e 513d 1f72 06be 57da 65be a786 93bd
00000390: 3c72 c93d 5368 3b3e 1aa9 9a3e babb 30bd
000003a0: ce67 a43c 14d8 99be deb7 1b3e 8990 473e
000003b0: afc5 123e b493 753d b527 07bd 33ac 04be
000003c0: 852e f0bc 9cc1 0b3e 399a b43d c2d3 273d
000003d0: 57cf 39be b967 893e 0c1c 193d d979 e9b9
000003e0: ced5 b2bd f465 ebbd d5c1 52be 2911 dfbd
000003f0: 2c9e 4abd 13c9 0bbe cda2 04bf 5d6b ad3d

conv3.bias f4 [64]
0.054320857 0.12575251 -0.16082363 0.24792911 0.11739395 0.16362451 -0.28695515 0.25496477
-0.1013204 0.2769127 -0.049317278 0.09060059 -0.051648565 0.29219517 -0.10753397 0.19121721
0.2665794 -0.17945999 0.018898787 0.076638594 -0.0027414965 -0.11251739 0.16337338 -0.110588744
0.1570696 -0.024518799 -0.019890726 -0.11723736 0.24657564 0.06380241 -0.03324077 -0.0810839
-0.24103077 0.113276675 0.08168143 0.16330405 -0.22145748 0.22695515 0.035040416 0.06837999
-0.123708196 0.1819643 -0.02632735 -0.086029 -0.010161663 0.19762337 0.22861332 0.23042113
0.009545322 0.122882195 -0.017978735 0.015198027 0.07268752 0.14600408 -0.098976135 0.17692216
0.1385398 0.2587629 -0.034307074 0.16104287 -0.010573102 0.097524785 0.13147408 0.00865518
00000000: 8c7f 5e3d 44c5 003e f3ae 24be 21e1 7d3e
00000010: 3d6c f03d 2f8d 273e c9eb 92be be8a 823e
00000020: 1281 cfbd 80c7 8d3e ea00 4abd cd8c b93d
00000030: 728d 53bd 9b9a 953e c53a dcbd 72ce 433e
00000040: 187d 883e 5cc4 37be a1d1 9a3c b2f4 9c3d
00000050: aeaa 33bb 846f e6bd 5a4b 273e 5a7c e2bd
00000060: dad6 203e a6db c8bc e0f1 a2bc 241a f0bd
00000070: 537e 7c3e d7aa 823d 7927 08bd 510f a6bd
00000080: c5d0 76be 9afd e73d 9848 a73d 2d39 273e
00000090: c0c5 62be ee66 683e 8a86 0f3d cf0a 8c3d
000000a0: b95a fdbd d954 3a3e 74ac d7bc f92f b0bd
000000b0: 1b7d 26bc c85d 4a3e 9c19 6a3e 84f3 6b3e
000000c0: fb63 1c3c a9a9 fb3d 2448 93bc 2501 793c
000000d0: 32dd 943d 1882 153e 00b4 cabd 152b 353e
000000e0: 61dd 0d3e 927c 843e 9385 0cbd 6ce8 243e
000000f0: ce3a 2dbc 13bb c73d 24a1 063e 75ce 0d3c

conv4.weight f4 [128, 64, 3]
-0.021349167 -0.06452615 -0.018547319 -0.02607359 0.02993091 -0.06308005 -0.036763214 -0.043155238
-0.045675468 0.050958257 -0.029826935 -0.07158318 0.046599373 -0.019215705 -0.056869023 -0.02930362
-0.015222031 -0.046295863 -0.06967058 -0.024852093 0.030917857 0.02882994 0.012252269 0.038964275
0.04303987 0.013493481 -0.03415893 -0.025532655 -0.072268866 -0.04783886 -0.04465152 0.03130263
0.011358098 -0.06102469 -0.057004258 -0.01864904 0.046720702 -0.078690924 0.01590305 -0.083202176
-0.07602365 0.037683256 0.003079765 -0.057453368 -0.06902318 0.046703234 0.035501692 -0.012066952
-0.07492499 -0.05675408 -0.030945625 0.037144102 0.024075141 -0.07620521 -0.019532958 -0.00079943176
0.038697287 0.047643952 -0.06874116 -0.018519593 0.022445325 -0.0118642505 -0.018496815 0.052996203
-0.07106074 0.04841088 0.041740194 -0.050607603 -0.032136243 -0.06026547 -0.021641718 -0.041861974
-0.0024598285 0.042553294 0.051723845 0.0045515 0.009385348 -0.027561892 0.016724607 -0.07236547
0.051516656 -0.05304627 -0.008682268 0.024834504 -0.04165373 0.017832853 0.024549313 0.03395007
0.021259144 0.05670396 0.04595329 0.037113827 -0.06018427 0.023449464 -0.025306316 -0.03240825
-0.05222987 -0.05863186 -0.03442809 0.01591055 -0.046470255 0.028368881 -0.06739941 -0.037706714
-0.07036858 -0.060397543 0.01897698 -0.049544286 0.0038385065 -0.030044993 -0.005926122 -0.064044364
-0.0027446563 0.03135283 -0.07588299 -0.010394241 0.039315782 -0.0017010391 -0.07533997 -0.055237684
0.07173471 0.039031923 -0.011784255 0.020817729 0.04756839 -0.052003566 -0.060419746 -0.031677593
-0.010108237 -0.022778742 0.018369667 -0.01962744 0.022495082 -0.034903158 -0.06435802 -0.05024128
-0.06603079 0.05054839 0.037195288 0.037286513 -0.06362481 -0.075937726 0.046523616 -0.075451426
0.05633584 -0.00086247246 -0.026428603 -0.013287581 0.026944004 -0.010807598 -0.074019 -0.0073505123
0.0037820453 -0.053241245 0.025234431 -0.0032683471 0.011737183 0.023110183 -0.036588553 0.0058397814
-0.060171656 0.0440814 -0.0060289 -0.02087071 -0.014172886 0.036368135 0.03465073 -0.056373034
0.03859328 -0.023820339 0.025505899 0.0028237787 -0.009770977 -0.0022091463 -0.076923996 0.02609284
0.0051789144 0.036730923 0.015084708 0.05070831 0.030863697 -0.042835597 0.040323325 0.03437541
-0.045482706 -0.06354541 -0.016666533 0.05146802 -0.030012965 -0.01966606 0.0014803618 0.017563274
-0.020646088 0.010906635 0.0004982988 0.014655146 0.058940932 0.0029274244 -0.027626045 -0.09032455
-0.09329733 -0.08238354 -0.06829499 0.0029411102 0.026357338 -0.020288393 -0.07593501 -0.016583964
-0.05127798 -0.011810177 0.010406306 0.06823561 0.014964043 -0.008748402 0.004419807 0.013254174
-0.04673281 -0.06908369 -0.08140406 0.00022673351 0.015667785 -0.04462358 -0.024738358 -0.06766876
0.06470746 -0.015710928 -0.05592661 -0.023682965 -0.05220337 0.023579733 0.0017277743 0.013606279
-0.030623818 0.010756949 -0.033862464 0.070528224 0.01408761 0.008818536 0.00500703 -0.013734486
-0.041619092 -0.029050764 -0.051931974 -0.051401634 0.03176444 0.014439649 -0.087269455 -0.045439493
-0.050947033 -0.0630079 0.0054814904 -0.023021752 0.024653034 0.05239502 -0.010347339 -0.01630436
00000000: 73e4 aebc 4926 84bd 8cf0 97bc 4898 d5bc
00000010: ab31 f53c 1d30 81bd 0695 16bd 8cc3 30bd
00000020: 3316 3bbd 9bb9 503d 9e57 f4bc 349a 92bd
00000030: fcde 3e3d 416a 9dbc 7eef 68bd 250e f0bc
00000040: d365 79bc bba0 3dbd 73af 8ebd 9e96 cbbc
00000050: 7247 fd3c c42c ec3c bebd 483c 0199 1f3d
00000060: 934a 303d c313 5d3c 3cea 0bbd dc29 d1bc
00000070: b301 94bd aef2 43bd 83e4 36bd 3037 003d
00000080: 5117 3a3c 06f5 79bd 4c7d 69bd dfc5 98bc
00000090: 355e 3f3d b528 a1bd 1d47 823c e765 aabd
000000a0: 4ab2 9bbd c259 1a3d e2d5 493b 3954 6bbd
000000b0: 065c 8dbd e44b 3f3d 396a 113d 77b4 45bc
000000c0: 4672 99bd f776 68bd ae81 fdbc 6a24 183d
000000d0: 3b39 c53c 7a11 9cbd 9503 a0bc f590 51ba
000000e0: 0c81 1e3d 4e26 433d 2ac8 8cbd 67b6 97bc
000000f0: 42df b73c 4662 42bc a286 97bc 8c12 593d
00000100: 4b88 91bd 7d4a 463d c4f7 2a3d eb49 4fbd
00000110: 4ba1 03bd edd8 76bd f949 b1bc 7677 2bbd
00000120: 1335 21bb 5d4c 2e3d 62dc 533d c024 953b
00000130: 01c5 193c 7ac9 e1bc 0b02 893c 5934 94bd
00000140: 2103 533d 0c47 59bd 1240 0ebc bb71 cb3c
00000150: 1a9d 2abd 3416 923c a41b c93c 3b0f 0b3d
00000160: a827 ae3c 6942 683d 8439 3c3d ab04 183d
00000170: c883 76bd 1719 c03c 314f cfbc 83be 04bd
00000180: fdee 55bd f627 70bd 7804 0dbd d756 823c
00000190: 9857 3ebd db65 e83c b408 8abd 5b72 1abd
000001a0: 671d 90bd 6a63 77bd 9d75 9b3c f3ee 4abd
000001b0: 748f 7b3b eb20 f6bc ea2f c2bb b129 83bd
000001c0: b1df 33bb d36b 003d 8b68 9bbd 9b4c 2abc
000001d0: 9609 213d 67f5 deba d84b 9abd e940 62bd
000001e0: a6e9 923d f0df 1f3d bf12 41bc f189 aa3c
000001f0: 12d7 423d b101 55bd b27a 77bd 5dc0 01bd
00000200: 059d 25bc 7c9a babc fc7b 963c bac9 a0bc
00000210: 9b47 b83c 9df6 0ebd 23ce 83bd cdc9 4dbd
00000220: 273b 87bd d40b 4f3d 165a 183d beb9 183d
00000230: b94d 82bd 3d85 9bbd 8c8f 3e3d 4786 9abd
00000240: 69c0 663d 8c17 62ba cc80 d8bc 27b4 59bc
00000250: acb9 dc3c 5a12 31bc 4697 97bd 91dc f0bb
00000260: 31dc 773b 7e13 5abd 70b8 ce3c c431 56bb
00000270: 504d 403c 9151 bd3c e1dd 15bd a35b bf3b
00000280: 8e76 76bd b38e 343d 148e c5bb 0df9 aabc
00000290: 6435 68bc c1f6 143d eded 0d3d 69e7 66bd
000002a0: fd13 1e3d df22 c3bc bff1 d03c 250f 393b
000002b0: 7316 20bc 53c7 10bb 548a 9dbd a7c0 d53c
000002c0: e2b3 a93b 2a73 163d da25 773c 84b3 4f3d
000002d0: ddd5 fc3c 6174 2fbd 122a 253d 3bcd 0c3d
000002e0: 134c 3abd 1924 82bd 4188 88bc 21d0 523d
000002f0: c0dd f5bc b81a a1bc b308 c23a dbe0 8f3c
00000300: fc21 a9bc beb1 323c 44a0 023a 231c 703c
00000310: 0c6c 713d 08da 3f3b 0450 e2bc 14fc b8bd
00000320: ac12 bfbd b4b8 a8bd 3ede 8bbd a4bf 403b
00000330: 58eb d73c d833 a6bc d183 9bbd 18db 87bc
00000340: dc08 52bd 797f 41bc 367f 2a3c 1dbf 8b3d
00000350: bf2b 753c 7555 0fbc 07d4 903b 0928 593c
00000360: e76a 3fbd c07b 8dbd 2cb7 a6bd 50bf 6d39
00000370: ba59 803c 37c7 36bd 19a8 cabc eb95 8abd
00000380: 5885 843d 34b4 80bc 4d13 65bd c702 c2bc
00000390: 33d3 55bd 492a c13c 7c76 e23a dfec 5e3c
000003a0: cdde fabc ea3d 303c 5eb3 0abd 1a71 903d
000003b0: b8cf 663c 9f7b 103c 0312 a43b 9c06 61bc
000003c0: c878 2abd defb edbc 9fb6 54bd 858a 52bd
000003d0: 6e1b 023d 4794 6c3c 54ba b2bd c31e 3abd
000003e0: d6ad 50bd 490a 81bd 139e b33b 1d98 bcbc
000003f0: 29f5 c93c 299c 563d e387 29bc b990 85bc

conv4.bias f4 [128]
-0.037637427 -0.08543301 -0.038722362 0.22691841 0.038327146 -0.014642826 0.08564828 0.2274454
0.15169388 0.05472706 0.1847587 -0.058099426 -0.043566503 -0.16744925 0.056182664 -0.043007754
0.07513898 -0.092100136 -0.024484664 -8.996927e-05 0.0028863759 0.024197282 0.13820833 -0.047716293
-0.10679567 0.112568 -0.020659165 0.15070629 -0.18479899 0.17437716 -0.10786299 -0.07259412
0.021697951 0.21535955 -0.018003276 0.033877354 0.17899162 -0.055294607 0.18465269 -0.08117289
0.15982704 0.042083345 -0.017540004 0.04323107 0.22696084 0.034092017 -0.0059980224 -0.0953622
0.11468506 0.12629902 0.065966144 0.08972965 0.004420448 0.026402868 -0.022367585 -0.12987618
-0.03119644 0.26807755 -0.21604122 -0.03450862 -0.0102232 0.015469312 0.18386503 -0.02708827
-0.07788746 -0.11037591 -0.061682884 -0.011004176 0.08332599 0.051090136 -0.09297422 0.106421635
0.07215893 0.15310042 0.06459282 -0.1323647 0.029946128 -0.033059184 0.0057758153 0.096642464
0.21203679 -0.1712631 -0.036737356 0.20490046 0.027078778 -0.0069113206 0.16345304 0.2638636
0.045173094 0.07793104 -0.06058527 0.0036354065 -0.021085372 -0.111818336 -0.09597497 0.067752756
0.06126193 0.21244648 0.15339886 -0.085775 -0.12122918 0.025057198 -0.057374105 -0.017379357
0.014156254 0.15263955 -0.26397887 -0.051356517 0.17642625 0.043910354 -0.07989452 -0.09946233
0.10540518 -0.066971295 -0.040123224 -0.06122612 0.14625037 -0.14081372 -0.13246614 -0.4808105
-0.13400657 0.07524631 -0.21014036 0.041783363 0.11965205 0.08298783 0.079668656 0.032056637
00000000: b429 1abd 80f7 aebd 579b 1ebd 4d5d 683e
00000010: edfc 1c3d 77e8 6fbc 5e68 af3d 72e7 683e
00000020: a455 1b3e 7b29 603d 6231 3d3e aaf9 6dbd
00000030: ca72 32bd d177 2bbe cb1f 663d e628 30bd
00000040: 77e2 993d ff9e bcbd 1094 c8bc e2ad bcb8
00000050: 5a29 3d3b 6139 c63c 7c86 0d3e 2972 43bd
00000060: b0b7 dabd 0d8a e63d 693d a9bc c052 1a3e
00000070: f23b 3dbe ed8f 323e 45e7 dcbd 3aac 94bd
00000080: e7bf b13c 3787 5c3e 9b7b 93bc fbc2 0a3d
00000090: 9449 373e 997c 62bd 9815 3d3e f93d a6bd
000000a0: b3a9 233e 965f 2c3d 0eb0 8fbc 1013 313d
000000b0: 6c68 683e 12a4 0b3d 0f8b c4bb 424d c3bd
000000c0: 00e0 ea3d 8854 013e 4219 873d 2ec4 b73d
000000d0: 68d9 903b d44a d83c 3a3c b7bc 43fe 04be
000000e0: ad8f ffbc 7641 893e e939 5dbe e958 0dbd
000000f0: 357f 27bc ff72 7d3c 1d47 3c3e 38e8 ddbc
00000100: 7683 9fbd c40c e2bd 31a7 7cbd dc4a 34bc
00000110: d1a6 aa3d e443 513d 4569 bebd 96f3 d93d
00000120: 10c8 933d 5bc6 1c3e 3e49 843d 9d8a 07be
00000130: 9551 f53c 1169 07bd 0d43 bd3b 7cec c53d
00000140: 2c20 593e 985f 2fbe e979 16bd 6dd1 513e
00000150: 50d4 dd3c 5c78 e2bb 3c60 273e 2119 873e
00000160: 6c07 393d 4f9a 9f3d 4328 78bd 0040 6e3b
00000170: 3bbb acbc 0301 e5bd 868e c4bd f5c1 8a3d
00000180: caed 7a3d 928b 593e 9714 1d3e ceaa afbd
00000190: 0147 f8bd c144 cd3c 1c01 6bbd 275f 8ebc
000001a0: a2ef 673c 8b4d 1c3e 3d28 87be 365b 52bd
000001b0: 15a9 343e 58db 333d bd9f a3bd e8b2 cbbd
000001c0: acde d73d 3f28 89bd 4058 24bd 3dc8 7abd
000001d0: a8c2 153e 7931 10be 34a5 07be cb2c f6be
000001e0: 0539 09be bd1a 9a3d 092f 57be 0825 2b3d
000001f0: 220c f53d 86f5 a93d 5229 a33d d24d 033d

output_conv.weight f4 [1, 128, 1]
0.01836488 0.006405314 0.04505099 -0.25022402 0.2482507 0.05099571 -0.0021168021 -0.05214998
-0.18878043 0.04727352 0.0004847234 0.32686797 -0.015459015 0.68823195 -0.48549187 0.024955101
0.01855324 0.09119318 0.117370635 0.06191199 0.019085323 0.078821495 -0.044941824 0.6678697
0.05471512 0.009856134 0.10923875 -0.28652626 0.08176656 -0.05922391 0.44162545 -0.0066195684
0.53604513 -0.095698 -0.034978326 0.08132666 -0.5786194 0.0061237905 -0.043967105 -0.0037301453
-0.3110772 0.23524217 0.015333106 0.069775276 -0.094652444 0.1415248 -0.0052550137 0.16939124
-0.0061397874 -0.2679173 0.23823318 -0.24166876 0.0046674446 0.00095342577 0.00614667 0.121627875
0.22107191 -0.6930037 0.5683132 0.4650112 -0.66201925 0.037767332 -0.8235033 0.018020889
0.26835898 0.043578025 0.3870024 0.117407165 -0.0036183791 -0.5622633 0.01113086 -0.41938537
0.0015754862 -0.82954514 0.5602631 0.16199115 0.0044247736 0.0066984235 0.01131121 0.0047499104
-0.061486717 0.008942935 -0.022706037 -0.10041047 0.019959465 0.04390488 -0.2508844 -0.01968332
-0.004853744 -0.17132564 0.06416954 0.014618039 0.064464346 0.3962902 0.0077758757 -0.86116594
-0.011569948 -0.28418347 -0.05531013 -0.0032572025 0.109104976 0.025831858 0.12350768 0.6254118
-0.001263889 -0.025659759 0.7339312 0.06958695 -0.10022089 0.023199102 -0.0034347703 0.49102104
-0.011882326 0.015979901 0.060355898 0.07248956 0.00069716654 0.031681247 0.6300449 0.80112636
-0.008271996 0.25673443 0.029079633 -0.024239441 -0.28838685 0.25987926 -0.002906056 0.15710922
00000000: f271 963c abe3 d13b 6387 383d 5d1d 80be
00000010: 6e35 7e3e e1e0 503d 0cba 0abb 389b 55bd
00000020: a84f 41be e1a1 413d 7922 fe39 3d5b a73e
00000030: cf47 7dbc f82f 303f 6492 f8be a46e cc3c
00000040: f7fc 973c 7dc3 ba3d 0460 f03d 6d97 7d3d
00000050: d358 9c3c 2a6d a13d eb14 38bd 82f9 2a3f
00000060: f61c 603d 9f7b 213c 91b8 df3d 92b3 92be
00000070: 3a75 a73d c594 72bd bb1c e23e f7e8 d8bb
00000080: 413a 093f 50fd c3bd 6f45 0fbd 988e a63d
00000090: 6720 14bf 14aa c83b da16 34bd 7475 74bb
000000a0: 8345 9fbe 53e3 703e b537 7b3c 57e6 8e3d
000000b0: 24d9 c1bd e1eb 103e 4032 acbb e674 2d3e
000000c0: 4530 c9bb 752c 89be 66f3 733e 0478 77be
000000d0: 5df1 983b 52ef 793a 016a c93b 0918 f93d
000000e0: ad60 623e b168 31bf f97c 113f f315 ee3e
000000f0: 187a 29bf ebb1 1a3d 1dd1 52bf 8ba0 933c
00000100: 5966 893e df7e 323d 2e25 c63e 2b73 f03d
00000110: 5422 6dbb 7df0 0fbf 365e 363c aeb9 d6be
00000120: 8b80 ce3a 125d 54bf 676d 0f3f 02e1 253e
00000130: b1fd 903b 737e db3b a752 393c 23a5 9b3b
00000140: 7fd9 7bbd 6385 123c 0302 babc 01a4 cdbd
00000150: 0882 a33c 9ad5 333d ec73 80be ea3e a1bc
00000160: 280c 9fbb fd6f 2fbe 526b 833d 8080 6f3c
00000170: e205 843d 8de6 ca3e c6cc fe3b 5f75 5cbf
00000180: e18f 3dbc 7f80 91be e08c 62bd ca76 55bb
00000190: 6e72 df3d 559d d33c 98f1 fc3d fd1a 203f
000001a0: 14a9 a5ba 6a34 d2bc eae2 3b3f 9a83 8e3d
000001b0: 9c40 cdbd 0b0c be3c e219 61bb 1c67 fb3e
000001c0: 16ae 42bc 48e8 823c bf37 773d 6875 943d
000001d0: 0ec2 363a 32c4 013d 9f4a 213f 9e16 4d3f
000001e0: 4487 07bc b272 833e 6938 ee3c cb91 c6bc
000001f0: 71a7 93be e50e 853e 8773 3ebb 3de1 203e
